model/FCVE_single_epoch200.pt (torch, 160013 bytes, 51 tensors)

encoder.1.weight f4 [40, 1, 1, 8]
0.29087123 0.1547979 -0.17340751 0.19394284 -0.15961231 -0.25577807 -0.26594466 0.04583149
-0.11323678 0.017206509 0.09556595 -0.14515597 0.17091237 0.06314099 -0.17861305 -0.2043234
0.101542145 0.27459836 -0.007956903 0.2271671 0.38746107 0.0401278 0.3370711 0.17397805
-0.008611051 0.26494417 0.32807493 0.3054129 -0.09048163 -0.1173443 0.10083351 -0.36667746
0.0383258 -0.071268246 -0.29686543 0.25347123 -0.10663917 0.12558594 -0.12255525 0.26143634
-0.19685659 -0.2510934 0.015912063 0.2838348 0.07958181 -0.082101606 0.2126309 -0.06231746
-0.39929935 -0.30576178 0.14582369 0.1857538 0.20168228 0.0376383 0.1516196 0.12152367
0.15950911 -0.04474161 -0.1401551 -0.15835468 -0.083045244 -0.39544776 -0.22624163 -0.0761147
0.28150848 -0.29253623 -0.11602998 -0.20189886 0.23010525 -0.06020393 -0.008677058 -0.056865748
-0.27036107 -0.09184016 -0.0752751 -0.21029657 0.054883957 -0.14257465 0.09544324 0.31464154
0.17883451 -0.01774748 -0.068472385 0.016987033 -0.296597 -0.010587432 0.29487824 -0.017256541
0.18107349 0.110887125 0.039081726 0.08839731 0.1477931 0.27886146 0.24038287 -0.30280295
-0.03801207 0.23869827 -0.004172666 -0.0962334 -0.30098388 0.081751674 -0.23382875 0.30847436
-0.03061555 0.15114327 0.0763229 0.051028322 0.18773714 -0.18258892 -0.22938143 -0.25355145
0.09977199 0.22569309 0.06986547 0.12401179 0.18529566 -0.019198269 -0.11501224 0.07896105
0.24171388 -0.12660256 -0.34559098 -0.18277307 -0.3265717 -0.39511585 -0.09596593 -0.24367507
-0.2811424 -0.29950085 0.28118563 0.3202969 0.045080688 -0.086002834 0.1975567 -0.08152536
-0.040659532 -0.36842003 -0.009139575 -0.2832557 0.34683827 -0.062293243 0.3116858 -0.06504098
0.24180886 0.19073021 0.0935221 0.12591672 0.0075069657 -0.03214148 -0.33103916 -0.17977645
0.2413091 -0.14009663 0.30126253 0.03613868 0.044494204 -0.37173268 0.23586866 -0.24901524
0.044125404 0.12122158 -0.09970899 0.270011 0.076374985 -0.068297096 -0.22394758 0.07025846
-0.02341307 -0.44095117 -0.29142955 -0.124300934 -0.0015666266 0.0226537 -0.15312593 0.0821806
0.25490463 0.2778326 -0.048153963 -0.21115462 0.26003635 0.21944693 -0.07162673 -0.28496018
-0.32013476 -0.21217427 0.21050107 0.27803773 0.34440732 0.23208652 0.2693227 -0.033147093
-0.10249904 0.30107912 0.04738555 0.17859331 -0.20518127 -0.24673899 -0.27649972 -0.08417347
-0.34861904 0.30140796 -0.12211215 0.25962004 0.2849233 0.1698806 0.20409389 -0.02579943
-0.22643164 0.059130803 0.007879871 0.24415056 0.053095773 0.21282615 -0.20505059 0.0015912219
0.4129679 -0.16893123 -0.03770261 0.17924136 -0.056334894 -0.18440826 0.2371931 -0.17358616
-0.21876161 -0.24306372 -0.10109637 0.13268061 -0.12854876 0.23093688 0.06240143 -0.14198723
0.027927993 0.00026306696 0.092964806 0.15858336 -0.31767213 0.3418946 -0.022763789 -0.39026397
0.12531474 0.26308778 -0.10169232 -0.13604835 -0.18410678 -0.270786 -0.09599095 0.15734373
-0.06193452 0.10273336 -0.1758219 0.30162835 0.16590026 0.22279269 0.083093576 0.3333879
00000000: 13ed 943e 5783 1e3e bd91 31be f498 463e
00000010: 6971 23be 58f5 82be e629 88be cdb9 3b3d
00000020: afe8 e7bd aaf4 8c3c 15b8 c33d c4a3 14be
00000030: a703 2f3e 1050 813d 57e6 36be 273a 51be
00000040: 54f5 cf3d 2898 8c3e ac5d 02bc 7e9e 683e
00000050: 4c61 c63e 0c5d 243d 9594 ac3e 4d27 323e
00000060: 5e15 0dbc c3a6 873e 70f9 a73e 145f 9c3e
00000070: 6f4e b9bd 3552 f0bd cd81 ce3d 26bd bbbe
00000080: 84fb 1c3d 16f5 91bd bffe 97be fbc6 813e
00000090: a365 dabd 9a99 003e 3ffe fabd fcda 853e
000000a0: c694 49be 508f 80be 045a 823c cb52 913e
000000b0: cafb a23d e324 a8bd eabb 593e 9840 7fbd
000000c0: f770 ccbe cf8c 9cbe ce52 153e 3f36 3e3e
000000d0: cd85 4e3e 9e2a 1a3d 2b42 1b3e 67e1 f83d
000000e0: 5b56 233e fa42 37bd d284 0fbe bb27 22be
000000f0: a013 aabd 2178 cabe e3ab 67be 06e2 9bbd
00000100: e121 903e 4fc7 95be 20a1 edbd 93be 4ebe
00000110: b6a0 6b3e 6598 76bd 382a 0ebc 0fec 68bd
00000120: c46c 8abe b216 bcbd d529 9abd fc57 57be
00000130: 00ce 603d 17ff 11be bf77 c33d b218 a13e
00000140: 6520 373e 2a63 91bc 403b 8cbd 6428 8b3c
00000150: 90db 97be e976 2dbc 48fa 963e 975d 8dbc
00000160: 546b 393e ca18 e33d 2914 203d a609 b53d
00000170: 1357 173e eec6 8e3e ed26 763e fd08 9bbe
00000180: 8bb2 1bbd 526d 743e dcba 88bb 0416 c5bd
00000190: 8f1a 9abe 6c6d a73d ce70 6fbe 5af0 9d3e
000001a0: 76cd fabc 4dc5 1a3e 2e4f 9c3d 1303 513d
000001b0: 2a3e 403e 97f8 3abe f7e2 6abe 7fd1 81be
000001c0: 4255 cc3d 171c 673e a115 8f3d e5f9 fd3d
000001d0: 25be 3d3e b045 9dbc 8a8b ebbd 55b6 a13d
000001e0: d883 773e 1aa4 01be 4df1 b0be dd28 3bbe
000001f0: 6834 a7be a04c cabe c989 c4bd f585 79be
00000200: e6f1 8fbe 2d58 99be 90f7 8f3e f5fd a33e
00000210: 87a6 383d 4122 b0bd 4e4c 4a3e c5f6 a6bd
00000220: 9c8a 26bd 8da1 bcbe 28be 15bc e406 91be
00000230: c994 b13e 3327 7fbd 4895 9f3e 3534 85bd
00000240: be9c 773e c84e 433e 8488 bf3d 50f0 003e
00000250: fefc f53b c9a6 03bd f77d a9be 5117 38be
00000260: bc19 773e 7e75 0fbe 153f 9a3e 2706 143d
00000270: 8e3f 363d bf53 bebe 8e87 713e dafd 7ebe
00000280: d7bc 343d 0543 f83d 3a34 ccbd e23e 8a3e
00000290: 7d6a 9c3d 59df 8bbd 8452 65be abe3 8f3d
000002a0: c4cc bfbc 5ac4 e1be 4136 95be 7d91 febd
000002b0: 4457 cdba 4194 b93c 0bcd 1cbe 4d4e a83d
000002c0: dc82 823e 1340 8e3e 173d 45bd eb38 58be
000002d0: 7c23 853e b2b6 603e 09b1 92bd 4de6 91be
000002e0: b4e8 a3be 3644 59be 988d 573e f65a 8e3e
000002f0: 2856 b03e 17a8 6d3e aae4 893e 3fc5 07bd
00000300: 04eb d1bd 0b27 9a3e 5a17 423d 2ae1 363e
00000310: 0a1b 52be 25a9 7cbe 5f91 8dbe 2463 acbd
00000320: 327e b2be 2552 9a3e ef15 fabd ebec 843e
00000330: 77e1 913e 2ef5 2d3e fdfd 503e 5459 d3bc
00000340: b2dd 67be 2433 723d 931a 013c 9b02 7a3e
00000350: f47a 593d 19ef 593e c8f8 51be 8c90 d03a
00000360: 8770 d33e 4ffc 2cbe 0d6e 1abd 0c8b 373e
00000370: 6bbf 66bd 85d5 3cbe bfe2 723e 92c0 31be
00000380: 0b03 60be b2e5 78be 9d0b cfbd 6ddd 073e
00000390: 49a2 03be b87a 6c3e a498 7f3d 1a65 11be
000003a0: 3fc9 e43c 40ec 8939 5564 be3d ad63 223e
000003b0: eca5 a2be cf0c af3e 207b babc aed0 c7be
000003c0: 8252 003e 71b3 863e 1044 d0bd 4250 0bbe
000003d0: 7d86 3cbe 76a4 8abe e796 c4bd b71e 213e
000003e0: 0daf 7dbd de65 d23d a80a 34be 086f 9a3e
000003f0: c2e1 293e c423 643e f72c aa3d d2b1 aa3e

encoder.1.bias f4 [40]
-0.33883968 -0.16052715 -0.21277095 -0.29949018 -0.13758673 0.09238118 -0.19491127 0.28573984
0.10784765 0.29474416 0.20794995 -0.21669698 0.14833112 -0.20262595 0.21571882 0.35177588
-0.041990224 0.016793007 -0.33330607 0.05410961 0.07607141 0.04259233 -0.18770416 -0.17991096
-0.084907696 0.19514818 0.0559892 0.029838566 -0.089651965 0.31000605 -0.0035169546 -0.18914303
0.2586791 -0.3342855 -0.055146515 -0.32560965 0.2434545 -0.21089134 0.020434257 0.11460985
00000000: 657c adbe 3b61 24be a1e0 59be c756 99be
00000010: 89e3 0cbe 5832 bd3d d296 47be 7e4c 923e
00000020: 3bdf dc3d b5e8 963e d5f0 543e d0e5 5dbe
00000030: 1de4 173e 2d7d 4fbe 65e5 5c3e f81b b43e
00000040: f1fd 2bbd 7d91 893c 18a7 aabe 0aa2 5d3d
00000050: 54cb 9b3d 4c75 2e3d 8535 40be 943a 38be
00000060: 16e4 adbd edd4 473e ee54 653d 0270 f43c
00000070: 739b b7bd 1db9 9e3e b57c 66bb b6ae 41be
00000080: 9671 843e 7827 abbe 50e1 61bd 4fb6 a6be
00000090: 234c 793e e6f3 57be be65 a73c 92b8 ea3d

encoder.2.weight f4 [40]
0.9466034 0.9498128 0.96055335 0.91639733 0.9717781 1.110248 1.0609132 1.0018654
0.9208028 0.9780447 0.9936521 0.9625768 1.1469023 1.0226009 0.95776445 1.0059882
1.0093647 1.054093 0.9851247 0.97575545 0.93010825 1.0236361 0.94660574 0.9750026
0.9736178 0.9759685 0.90766263 0.87730944 0.99254024 0.9064457 0.9967798 0.97228235
0.9907841 0.8874552 1.0502744 0.9612299 0.9714294 0.99513817 0.9075742 0.9655653
00000000: 9a54 723f ef26 733f d3e6 753f 0499 6a3f
00000010: 73c6 783f 9b1c 8e3f 01cc 873f 203d 803f
00000020: bbb9 6b3f 2361 7a3f fc5f 7e3f 6f6b 763f
00000030: b2cd 923f 96e4 823f 0d30 753f 39c4 803f
00000040: dd32 813f 85ec 863f 2231 7c3f 1ccb 793f
00000050: 931b 6e3f 8206 833f c154 723f c599 793f
00000060: 043f 793f 12d9 793f 945c 683f 5a97 603f
00000070: 1e17 7e3f d30c 683f f62c 7f3f 7fe7 783f
00000080: 07a4 7d3f 4430 633f 646f 863f 2a13 763f
00000090: 99af 783f 60c1 7e3f c856 683f 4a2f 773f

encoder.2.bias f4 [40]
0.17838801 0.052896697 -0.02178436 -0.0602272 -0.09441653 0.6384577 0.15085816 0.057614792
0.13547754 0.14083578 0.3022683 -0.059118103 0.5347309 -0.022040695 -0.28631955 0.19253874
0.3638576 0.33891425 0.05337894 -0.18124676 -0.06736389 0.22794697 -0.13325696 -0.19552353
-0.0004216517 -0.030697994 0.03950215 -0.004520364 0.009431144 0.06579989 0.17445734 -0.045197718
0.40749425 -0.18649504 0.50050336 -0.015261858 -0.011996526 -0.09836659 -0.05602456 0.025342412
00000000: 59ab 363e 35aa 583d 1d75 b2bc ccb0 76bd
00000010: 745d c1bd f771 233f 907a 1a3e 7dfd 6b3d
00000020: a0ba 0a3e 4137 103e e9c2 9a3e d325 72bd
00000030: 20e4 083f b08e b4bc 7a98 92be e028 453e
00000040: 8b4b ba3e 2b86 ad3e e0a3 5a3d c098 39be
00000050: 14f6 89bd ee6a 693e 8374 08be 5237 48be
00000060: 2211 ddb9 5c7a fbbc 02cd 213d 901f 94bb
00000070: 1685 1a3c 18c2 863d f2a4 323e 3e21 39bd
00000080: 16a3 d03e 8ef8 3ebe fd20 003f df0c 7abc
00000090: 148d 44bc 6c74 c9bd 027a 65bd e49a cf3c

encoder.2.running_mean f4 [40]
-0.38819617 -0.245628 0.23321974 -0.17804843 -0.114248484 0.09305255 -0.15378039 0.0051764827
0.042539198 0.19988316 0.23078209 0.01141426 0.13479099 -0.2686403 0.40445518 -0.07714741
-0.013209958 -0.032331396 -0.29936895 0.08286662 0.13145994 -0.22775315 -0.07252044 0.044495862
-0.19736877 0.40625253 0.09924889 0.09027935 -0.20768476 0.27859753 -0.07465454 0.093305774
0.25791958 -0.27284268 -0.05538263 -0.21331677 0.437478 -0.6128302 0.20651749 0.20871365
00000000: a6c1 c6be e885 7bbe 28d1 6e3e 5452 36be
00000010: 1cfb e9bd 5692 be3d 9b78 1dbe 7c9f a93b
00000020: 953d 2e3d 2cae 4c3e 2452 6c3e e002 3b3c
00000030: a606 0a3e 398b 89be c014 cf3e 76ff 9dbd
00000040: 946e 58bc ed6d 04bd e346 99be f9b5 a93d
00000050: 6f9d 063e 1f38 69be 9985 94bd 4b41 363d
00000060: 0a1b 4abe 5500 d03e 0143 cb3d 61e4 b83d
00000070: 50ab 54be 56a4 8e3e 7be4 98bd 1917 bf3d
00000080: 090e 843e 09b2 8bbe e6d8 62bd b66f 5abe
00000090: 1efd df3e 71e2 1cbf 5279 533e 08b9 553e

encoder.2.running_var f4 [40]
0.0065807872 0.002840944 0.049498297 0.0124560045 0.00145088 0.0034310045 0.00937996 0.02393843
0.0025752538 0.0072123944 0.0019246995 0.015503918 0.0026303402 0.006056427 0.010133122 0.052260052
0.0052277506 0.0056421123 0.00823789 0.0030109477 0.0021842835 0.022256348 0.007278254 0.024583949
0.009618504 0.016193895 0.0028485018 0.0021705513 0.006281484 0.0021541046 0.006547177 0.02256261
0.004801693 0.0025857624 0.0067034587 0.00496669 0.009722082 0.0404876 0.0099765 0.003720497
00000000: a5a3 d73b 222f 3a3b babe 4a3d 4514 4c3c
00000010: 742b be3a b4da 603b 67ae 193c 871a c43c
00000020: 97c5 283b f355 ec3b 3346 fc3a 2504 7e3c
00000030: c961 2c3b fe74 c63b 6505 263c a30e 563d
00000040: 8d4d ab3b 78e1 b83b 37f8 063c 5253 453b
00000050: 3226 0f3b f252 b63c 6b7e ee3b 4764 c93c
00000060: ee96 1d3c 0fa9 843c eead 3a3b cf3f 0e3b
00000070: e8d4 cd3b e12b 0d3b b489 d63b 39d5 b83c
00000080: 8557 9d3b e575 293b b0a8 db3b 9ebf a23b
00000090: 5e49 1f3c 53d6 253d 7974 233c 95d3 733b

encoder.5.weight f4 [20, 40, 1, 8]
-0.026196511 -0.029514343 -0.007507113 0.0031814147 0.06259176 0.018128017 -0.013249046 0.06974791
-0.0630119 -0.007984299 0.040012434 0.059820652 -0.04506917 -0.02658051 0.04988792 -0.036080007
-0.018230392 -0.03523647 0.02565738 0.03129009 0.036980677 -0.048621524 -0.055368483 -0.065200776
0.030384583 -0.034505516 -0.044586018 -0.022296144 0.0071794265 0.01840709 -0.036421053 0.039039865
-0.056004863 -0.014179064 -0.015228483 0.020451343 0.01772542 -0.0003192276 0.053014427 0.057793994
-0.039677896 -0.054147568 0.0064774617 -0.014698954 0.010152328 0.037530296 0.067569345 0.005908607
-0.022181071 0.025021054 -0.038713153 0.033918664 0.060246445 0.036229413 -0.011784683 0.06431306
0.027529523 -0.024250053 0.051050786 -0.01978098 -0.000654417 -0.030324284 0.052341398 -0.004124719
-0.041170016 0.036974933 -0.012535859 -0.015851317 0.059588913 0.023127122 -0.020427303 0.007949312
-0.019415516 0.032425776 -0.020009521 0.058249574 -0.0009413233 0.015122829 -0.03986985 0.021773918
-0.026485784 0.011252888 0.03162332 0.012679748 0.072709575 0.039124925 0.038836528 -0.044705037
-0.05132063 -0.0064644543 0.012351275 -0.00587955 0.0397242 0.043767378 -0.007257976 0.027256457
-0.03981878 0.00047662362 -0.032601412 -0.022191377 0.005110856 -0.026347645 0.031462196 0.0063614906
-0.008768961 -0.00869416 0.01713475 -0.020182285 0.05706737 0.059447676 0.036190405 0.02000027
0.04166017 -0.034881517 -0.030398041 0.024829615 0.04065029 0.04180913 -0.004614358 -0.018484788
0.0066428334 0.03885905 0.043703813 -0.019321943 0.017626869 -0.015987063 0.004203688 0.036309265
-0.018950002 -0.031796522 -0.0019881176 0.020379659 0.022648172 -0.032034416 0.018294327 0.062202588
-0.0937555 0.03080579 -0.037204 0.008986391 0.049147543 0.06909263 0.05498413 -0.0145146465
-0.008280961 -0.033602834 -0.023578791 0.006842465 -4.8282796e-05 -0.016007759 -0.037654623 0.006212912
0.03035237 -0.036187585 0.04937346 -0.02301491 0.013294054 0.0066238497 0.025171116 -0.007435199
0.021625195 0.019358294 0.01260098 0.059956934 0.115372635 0.102907605 0.0045916485 -0.059510916
0.037358318 -0.023157489 -0.004966447 -0.005930447 -0.03173446 -0.0034336904 -0.017516179 -0.027104259
-0.00035548236 -0.010961441 0.013262422 0.04115097 0.10453021 0.057606407 0.079499446 0.0074901194
-0.019691393 0.045087203 -0.007976105 0.04737594 0.052914135 -0.031847257 0.020733105 -0.054152224
-0.019865014 0.024324916 -0.016781002 0.011573794 -0.03787339 -0.02304726 -9.847461e-05 0.07300738
-0.005515671 0.05555361 -0.038483985 0.009702491 0.023680257 -0.050354354 -0.059551813 -0.049637053
0.0364653 0.082440175 0.0047809486 -0.020468263 0.078356445 0.088261545 0.024443844 -0.009727292
-0.06309619 -0.003826854 0.033636346 0.017827505 0.01006422 0.02040925 0.04999247 0.047578786
0.012209933 0.039492212 0.04004042 0.03699206 -0.029847363 -0.012884503 0.0446112 0.03836202
0.030580658 -0.04703046 0.020354409 0.021186613 0.01427357 0.032345243 -0.012195025 -0.010077462
-0.06735343 0.040868443 -0.001148229 0.084673345 -0.040504903 0.031797457 0.00172736 0.013543293
0.012723749 -0.03254222 0.01354488 0.039940856 -0.004083313 0.038785607 -0.022826863 -0.043127473
00000000: 119a d6bc 10c8 f1bc 3afe f5bb 487f 503b
00000010: 1c30 803d 3581 943c 8712 59bc fed7 8e3d
00000020: 620c 81bd 94d0 02bc 14e4 233d 8006 753d
00000030: 739a 38bd 5fbf d9bc 4757 4c3d a1c8 13bd
00000040: e757 95bc 1e54 10bd 6d2f d23c 0a2a 003d
00000050: 0d79 173d 5d27 47bd 10ca 62bd fc87 85bd
00000060: 17e9 f83c a855 0dbd d49f 36bd 67a6 b6bc
00000070: 6541 eb3b 77ca 963c 3e2e 15bd 44e8 1f3d
00000080: 5b65 65bd 4e4f 68bc e380 79bc 9389 a73c
00000090: e634 913c 015e a7b9 a825 593d 65b9 6c3d
000000a0: 4a85 22bd d7c9 5dbd e340 d43b e2d3 70bc
000000b0: f355 263c 5eb9 193d cc61 8a3d fd9c c13b
000000c0: 14b5 b5bc f4f8 cc3c af91 1ebd 4cee 0a3d
000000d0: fac4 763d 4b65 143d 8b14 41bc 91b6 833d
000000e0: 9885 e13c 0ca8 c6bc a11a 513d b90b a2bc
000000f0: 2e8d 2bba a26a f8bc ef63 563d a728 87bb
00000100: e4a1 28bd 0773 173d 3463 4dbc 9fda 81bc
00000110: 8113 743d 1775 bd3c 2957 a7bc d53d 023c
00000120: 4a0d 9fbc e4d0 043d 02eb a3bc 1b97 6e3d
00000130: 23c3 76ba bec5 773c 914e 23bd 375f b23c
00000140: b7f8 d8bc 085e 383c 7487 013d b8be 4f3c
00000150: c2e8 943d 7541 203d 0d13 1f3d a11c 37bd
00000160: 9535 52bd c6d3 d3bb 015d 4a3c 3da9 c0bb
00000170: d8b5 223d 6c45 333d 51d4 edbb ef48 df3c
00000180: 0419 23bd 57e3 f939 0f89 05bd b1ca b5bc
00000190: f878 a73b 04d7 d7bc 81de 003d 0d74 d03b
000001a0: b0ab 0fbc f371 0ebc 2d5e 8c3c 5255 a5bc
000001b0: 79bf 693d 687f 733d 643c 143d 9bd7 a33c
000001c0: dba3 2a3d ecdf 0ebd 5005 f9bc 7a67 cb3c
000001d0: eb80 263d 0d40 2b3d 0a34 97bb 696d 97bc
000001e0: 20ac d93b ab2a 1f3d c502 333d 0d49 9ebc
000001f0: 3966 903c 4df7 82bc 17bf 893b 06b9 143d
00000200: 093d 9bbc 123d 02bd 144b 02bb 3ef3 a63c
00000210: a988 b93c 8536 03bd fcdd 953c 24c8 7e3d
00000220: e202 c0bd 6d5c fc3c 3963 18bd a83b 133c
00000230: ef4e 493d 7080 8d3d 0a37 613d d7ce 6dbc
00000240: deac 07bc 20a3 09bd 4f28 c1bc c236 e03b
00000250: 4283 4ab8 b422 83bc bc3b 1abd af95 cb3b
00000260: 89a5 f83c 6f39 14bd d33b 4a3d c489 bcbc
00000270: 4ecf 593c e10c d93b a833 ce3c f8a2 f3bb
00000280: 5227 b13c 4995 9e3c 5774 4e3c 6795 753d
00000290: 7d48 ec3d 39c1 d23d 8a75 963b b8c1 73bd
000002a0: 0905 193d c6b4 bdbc 94bd a2bb 3254 c2bb
000002b0: fefb 01bd c407 61bb 177e 8fbc c009 debc
000002c0: 0960 bab9 9e97 33bc a14a 593c eb8d 283d
000002d0: ef13 d63d b2f4 6b3d 9bd0 a23d ad6f f53b
000002e0: d84f a1bc 5cad 383d 36ae 02bc 460d 423d
000002f0: 7ebc 583d 4572 02bd 79d8 a93c b9ce 5dbd
00000300: f4bb a2bc 0c45 c73c 5078 89bc 03a0 3d3c
00000310: 2121 1bbd 9bcd bcbc 2784 ceb8 e584 953d
00000320: cdbc b4bb 2f8c 633d 62a1 1dbd 32f7 1e3c
00000330: 19fd c13c 5e40 4ebd 9aec 73bd 3950 4bbd
00000340: a35c 153d 65d6 a83d 81a9 9c3b 0fad a7bc
00000350: 5879 a03d 78c2 b43d 753e c83c 385f 1fbc
00000360: 9338 81bd f5cb 7abb 44c6 093d fd0a 923c
00000370: 66e4 243c 4d31 a73c e7c4 4c3d f9e1 423d
00000380: 2c0c 483c 96c2 213d 6c01 243d fc84 173d
00000390: 7582 f4bc 8619 53bc 3cba 363d 7e21 1d3d
000003a0: 4a84 fa3c 03a3 40bd 4abe a63c 8c8f ad3c
000003b0: b1db 693c 727c 043d a4cd 47bc f01b 25bc
000003c0: 98f0 89bd ab65 273d 2c80 96ba 3869 ad3d
000003d0: 78e8 25bd 0d3e 023d 9568 e23a b0e4 5d3c
000003e0: 4577 503c fe4a 05bd 58eb 5d3c 0699 233d
000003f0: 50cd 85bb a8dd 1e3d 67ff babc 6fa6 30bd

encoder.5.bias f4 [20]
-0.05162891 -0.038901124 -0.03010668 -0.03673145 -0.050868463 0.032627355 0.013425841 -0.04409408
-0.031133598 -0.05480701 0.016081443 -0.0035561207 0.03552517 -0.029195718 0.0030465247 0.009181147
-0.028746855 0.038263746 0.00593936 0.003716949
00000000: d678 53bd c956 1fbd 49a2 f6bc b873 16bd
00000010: 735b 50bd 43a4 053d 0ff8 5b3c fe9b 34bd
00000020: e30b ffbc 517d 60bd 3bbd 833c ce0d 69bb
00000030: d782 113d dc2b efbc 34a8 473b 866c 163c
00000040: 867e ebbc 72ba 1c3d f69e c23b 0e98 733b

encoder.6.weight f4 [20]
0.9721015 0.97542304 0.92741275 1.2530932 1.0015296 1.0091835 1.003932 0.9419681
0.9413654 1.0789293 1.1072446 0.9835491 0.92577964 0.97181135 1.113559 0.98677105
0.9756153 0.98668474 1.0067638 1.1132764
00000000: a5db 783f 53b5 793f ec6a 6d3f 5c65 a03f
00000010: 1f32 803f ed2c 813f d880 803f d224 713f
00000020: 53fd 703f 5b1a 8a3f 31ba 8d3f e0c9 7b3f
00000030: e5ff 6c3f a1c8 783f 1a89 8e3f 079d 7c3f
00000040: edc1 793f 5f97 7c3f a3dd 803f d77f 8e3f

encoder.6.bias f4 [20]
-0.16359401 0.032399964 -0.39416918 -0.005160373 0.14281747 -0.4331916 -0.25666472 -0.031671673
-0.0637624 -0.25821987 0.09567982 -0.347255 -0.050255887 -0.04407806 -0.3712836 -0.04088018
-0.101103485 0.03868769 0.12334974 -0.5906211
00000000: 3085 27be d3b5 043d 8bd0 c9be 5918 a9bb
00000010: be3e 123e 4acb ddbe 8f69 83be 28ba 01bd
00000020: dc95 82bd 6535 84be c8f3 c33d 68cb b1be
00000030: 1ed9 4dbd 328b 34bd e218 bebe fa71 27bd
00000040: 580f cfbd fc76 1e3d ca9e fc3d f232 17bf

encoder.6.running_mean f4 [20]
0.25338092 0.45366508 -0.20981728 -1.7794721 0.059132416 0.961276 0.6501295 0.14664672
0.567118 0.890979 -0.58428115 0.10766603 0.04915543 0.39621702 1.2746978 -0.4411749
0.55870366 -0.3051352 -0.8226731 0.36353073
00000000: 25bb 813e ca46 e83e 57da 56be bec5 e3bf
00000010: d534 723d 2f16 763f e36e 263f 8f2a 163e
00000020: a52e 113f 3317 643f 7393 15bf 0280 dc3d
00000030: 3457 493d f5dc ca3e 4c29 a33f ade1 e1be
00000040: 3407 0f3f ae3a 9cbe b49a 52bf b320 ba3e

encoder.6.running_var f4 [20]
0.7834421 0.5148727 0.2228362 0.3212877 0.91770476 0.4326467 0.78848755 0.8896492
0.49344957 0.3492585 0.38709325 0.28364956 1.174658 0.48185834 0.5085229 0.74845535
1.1393553 0.26064065 0.24007156 0.19196895
00000000: a98f 483f b3ce 033f 2c2f 643e d27f a43e
00000010: b3ee 6a3f de83 dd3e 52da 493f 0dc0 633f
00000020: 6ca5 fc3e 03d2 b23e 1631 c63e 843a 913e
00000030: 315b 963f 23b6 f63e 8f2e 023f c59a 3f3f
00000040: 65d6 913f b172 853e 52d5 753e 8293 443e

encoder.9.weight f4 [20, 20, 1, 8]
-0.072677545 0.06358953 0.0047187465 -0.061046693 0.017222608 -0.044972405 -0.029664507 -0.055034246
0.027587896 -0.039240114 -0.01997029 0.029471003 -0.033265214 0.08660154 0.04925693 -0.10084901
-0.060415275 0.05369369 0.042023648 0.054926943 0.069320515 -0.018838255 -0.003056291 -0.02210366
-0.017118791 0.024455518 0.04943739 0.06159654 0.04597214 0.017289665 0.070640825 -0.011168723
-0.07912797 -0.020988138 -0.08045968 -0.07948622 -0.04739557 -0.048161197 0.09720379 -0.06260439
-0.08255331 -0.054447044 -0.07041815 0.010157609 0.025536416 0.0653406 0.030765658 0.07253776
0.008302961 -0.025416775 0.06590404 -0.04678433 0.052220788 -0.03776374 0.018541396 0.060425967
-0.029548658 -0.0058828853 0.04238628 -0.015112897 -0.027915027 0.043557055 0.05815118 -0.02055258
-0.03480619 -0.076834425 0.036999557 -0.030138955 -0.053138465 -0.097381115 0.017875437 -0.05817087
0.015041742 -0.022536596 -0.04828479 -0.036563184 0.051373348 -0.00018614369 -0.06299013 -0.09501051
0.026332073 0.084905624 0.041101158 0.102168545 -0.06767527 -0.021477018 0.022675196 -0.01809556
-0.021799946 -0.092631444 -0.1185491 -0.025977382 -0.07664122 -0.070027225 -0.0018985458 0.019293785
-0.07324893 -0.004169038 -0.038048834 -0.04203464 0.030553345 0.0035354686 0.012024932 -0.058537353
0.028651692 0.007867265 0.014755555 0.08917538 -0.08268344 0.018771114 0.08917278 0.014477503
0.054068256 -0.0066212206 -0.09571039 -0.035199415 -0.048962165 0.0013511692 0.008170075 -0.03945671
-0.016644973 0.066304184 0.00755197 0.08726222 0.057448167 0.0028058048 0.029906278 0.08643021
-0.07248363 -0.04491848 0.04942095 -0.030377561 -0.060787052 0.025126146 -0.022055352 -0.040195286
0.0077734785 0.009103958 -0.040954757 -0.0005462234 0.042919572 0.024979165 0.062466428 0.011463147
-0.026561752 0.03051305 -0.008661209 0.09489924 -0.0021671723 0.043075323 0.04438523 -0.04574239
0.034229096 -0.029043658 -0.11426558 0.046135772 -0.021943074 -0.041889057 0.018585468 -0.06474996
0.055055168 0.023038825 0.023208113 -0.0009185201 0.0280761 0.022396527 0.02879973 -0.05266113
0.0005572807 0.02589942 -0.027107468 -0.025747122 0.004985082 -0.0018762882 -0.058200758 -0.08063347
-0.035228483 -0.056522824 0.02560486 0.05423048 0.027385287 -0.028594522 -0.037720602 0.06091427
-0.006866756 -0.025344228 -0.027015295 0.09118182 -0.0053586205 -0.006111387 -0.10428727 -0.10969919
0.027006801 -0.02008977 0.09534782 -0.029684955 -0.015768021 -0.07732686 9.259679e-05 0.065759905
-0.031724967 0.033210985 -0.06243354 -0.05759813 0.03446733 0.049651887 0.07771358 0.028897211
0.04130917 -0.009496922 -0.016580388 0.0045815385 0.0014864242 0.06347109 0.05634249 0.025869928
-0.048876524 -0.008552703 -0.02891028 0.067210935 0.00356435 -0.057229087 -0.050853617 0.013524804
-0.036185708 -0.017263245 -0.010710602 -0.02256107 0.052968305 -0.056702573 -0.0012630792 -0.036943782
0.06806141 0.014437539 0.053689174 0.020739675 0.00038968804 0.06605723 -0.013554046 0.060914252
-0.028263208 0.038943045 0.038965974 -0.0044184267 -0.011076076 -0.10297817 -0.04862412 0.009317366
0.028196046 0.06465433 -0.044724554 -0.047136515 -0.0057387445 0.018862857 0.040464733 0.055384796
00000000: f7d7 94bd 3a3b 823d b79f 9a3b 190c 7abd
00000010: 6d16 8d3c fc34 38bd fb02 f3bc 976b 61bd
00000020: 0300 e23c 3eba 20bd bc98 a3bc 2c6d f13c
00000030: 1b41 08bd 265c b13d a2c1 493d ed89 cebd
00000040: 0276 77bd eaed 5b3d fd20 2c3d 13fb 603d
00000050: eaf7 8d3d af52 9abc 0e4c 48bb bc12 b5bc
00000060: b53c 8cbc f056 c83c dc7e 4a3d a74c 7c3d
00000070: 484d 3c3d 0ea3 8d3c 23ac 903d 05fd 36bc
00000080: d80d a2bd 51ef abbc 0bc8 a4bd acc9 a2bd
00000090: db21 42bd ad44 45bd c812 c73d bb36 80bd
000000a0: b611 a9bd dd03 5fbd 6437 90bd 1a6c 263c
000000b0: bf31 d13c 4bd1 853d 4308 fc3c ad8e 943d
000000c0: 2409 083c d736 d0bc b3f8 863d eda0 3fbd
000000d0: 77e5 553d 27ae 1abd 20e4 973c 3881 773d
000000e0: 0710 f2bc 38c5 c0bb 3c9d 2d3d 169c 77bc
000000f0: 0eae e4bc e268 323d ef2f 6e3d e25d a8bc
00000100: ef90 0ebd 5e5b 9dbd d98c 173d f8e5 f6bc
00000110: b8a7 59bd c06f c7bd 826f 923c 9444 6ebd
00000120: a371 763c ab9e b8bc 46c6 45bd 47c3 15bd
00000130: dc6c 523d 912f 43b9 f800 81bd df94 c2bd
00000140: 5cb6 d73c 00e3 ad3d b059 283d be3d d13d
00000150: 5599 8abd 92f0 afbc 55c1 b93c 243d 94bc
00000160: cd95 b2bc 8eb5 bdbd dfc9 f2bd 85ce d4bc
00000170: 12f6 9cbd 6f6a 8fbd a0d8 f8ba 000e 9e3c
00000180: 8903 96bd 6d9c 88bb 18d9 1bbd 842c 2cbd
00000190: 024b fa3c 52b3 673b 3804 453c ddc4 6fbd
000001a0: f4b6 ea3c b3e5 003c 49c1 713c 95a1 b63d
000001b0: ef55 a9bd e1c5 993c 38a0 b63d 0c33 6d3c
000001c0: ad76 5d3d d3f6 d8bb cf03 c4bd 432d 10bd
000001d0: 8d8c 48bd b719 b13a c7db 053c 5c9d 21bd
000001e0: 0a5b 88bc 7dca 873d 8476 f73b 89b6 b23d
000001f0: c54e 6b3d 98e1 373b 03fe f43c 5202 b13d
00000200: 4c72 94bd 71fc 37bd 9f6d 4a3d 5dda f8bc
00000210: d8fb 78bd 59d5 cd3c 6dad b4bc d0a3 24bd
00000220: aab8 fe3b c428 153c 2dc0 27bd 6f30 0fba
00000230: 6fcc 2f3d 1ba1 cc3c ccdc 7f3d eccf 3b3c
00000240: 0898 d9bc 81f6 f93c bee7 0dbc 885a c23d
00000250: 1e07 0ebb c06f 303d 49cd 353d 5f5c 3bbd
00000260: cf33 0c3d f7ec edbc 1304 eabd ddf8 3c3d
00000270: f6c1 b3bc dc93 2bbd 8d40 983c a19b 84bd
00000280: 8781 613d ebbb bc3c f11e be3c d7c8 70ba
00000290: d9ff e53c ec78 b73c 69ed eb3c 32b3 57bd
000002a0: 7a16 123a 052b d43c 7b10 debc a1eb d2bc
000002b0: e659 a33b c9ed f5ba eb63 6ebd 2923 a5bd
000002c0: be4b 10bd 7a84 67bd 49c1 d13c c820 5e3d
000002d0: 1c57 e03c 0f3f eabc eb80 1abd 3e81 793d
000002e0: 8602 e1bb b39e cfbc 2e4f ddbc 89bd ba3d
000002f0: 5e97 afbb 0842 c8bb 9094 d5bd f8a9 e0bd
00000300: 5e3d dd3c 4d93 a4bc b845 c33d dd2d f3bc
00000310: f02b 81bc 8b5d 9ebd 8630 c238 21ad 863d
00000320: 0af2 01bd 3e08 083d 50ba 7fbd 04ec 6bbd
00000330: 9d2d 0d3d c75f 4b3d 4c28 9f3d d8b9 ec3c
00000340: ce33 293d fa98 1bbc 98d3 87bc bb20 963b
00000350: 1fd4 c23a 21fd 813d 62c7 663d 2ced d33c
00000360: c032 48bd a320 0cbc 40d5 ecbc e3a5 893d
00000370: df97 693b 0c69 6abd e24b 50bd 2497 5d3c
00000380: 7737 14bd a66b 8dbc 857b 2fbc fed1 b8bc
00000390: 4bf5 583d f540 68bd e88d a5ba 5d52 17bd
000003a0: c863 8b3d 6d8b 6c3c 2ee9 5b3d 40e6 a93c
000003b0: 0b4f cc39 0349 873d ca11 5ebc 3981 793d
000003c0: 3e88 e7bc be82 1f3d c99a 1f3d 73c8 90bb
000003d0: 6e78 35bc 38e6 d2bd 162a 47bd dea7 183c
000003e0: 65fb e63c 7d69 843d 1831 37bd 3812 41bd
000003f0: 140c bcbb 4786 9a3c 59be 253d 2bdb 623d

encoder.9.bias f4 [20]
-0.03364801 -0.07512501 -0.008724527 -0.025959985 -0.07742917 0.008337273 -0.0075991033 0.009657632
0.050815172 0.024130464 0.05083478 0.061239336 -0.03801295 -0.07352011 -0.05086531 -0.020203726
0.040664453 0.054768242 0.06834378 -0.015281484
00000000: 7fd2 09bd 24db 99bd 52f1 0ebc 09aa d4bc
00000010: 2f93 9ebd 0f99 083c e601 f9bb 0b3b 1e3c
00000020: 9223 503d 40ad c53c 2138 503d 19d6 7a3d
00000030: 78b3 1bbd b691 96bd 2558 50bd 4982 a5bc
00000040: c58f 263d aa54 603d d3f7 8b3d 315f 7abc

encoder.10.weight f4 [20]
1.0316575 0.97519153 1.03017 1.0238929 0.9948089 1.0592351 1.1300218 0.98482966
0.90838844 1.0968685 0.99342334 1.0441966 0.9843225 0.96520877 1.0289636 1.0715313
1.00796 0.969164 1.0593858 1.0672847
00000000: 5a0d 843f 27a6 793f 9cdc 833f ec0e 833f
00000010: ccab 7e3f 0495 873f 8ea4 903f cc1d 7c3f
00000020: 258c 683f 3066 8c3f fe50 7e3f 3ca8 853f
00000030: 8ffc 7b3f ec17 773f 14b5 833f f027 893f
00000040: d504 813f 221b 783f f499 873f c99c 883f

encoder.10.bias f4 [20]
-0.041437916 -0.0053073005 -0.028844358 -0.012144561 -0.13827094 -0.11590811 -0.075165756 0.068581276
-0.10035602 -0.27271524 -0.045969225 0.055250157 -0.04385256 -0.20819078 -0.046573713 -0.23212905
-0.23502117 -0.012279136 0.069696695 -0.014730586
00000000: ceba 29bd dde8 adbb 014b ecbc fbf9 46bc
00000010: e696 0dbe 3b61 edbd 81f0 99bd 5774 8c3d
00000020: 7587 cdbd 55a1 8bbe 3a4a 3cbd fd4d 623d
00000030: be9e 33bd f72f 55be 14c4 3ebd 3db3 6dbe
00000040: 64a9 70be 6e2e 49bc 24bd 8e3d 8e58 71bc

encoder.10.running_mean f4 [20]
0.20445451 -0.30774704 -0.03758055 0.27082363 -0.27326307 0.09200447 -0.002993532 0.37963867
-0.1851778 -0.31522056 -0.2619041 0.24678332 -0.016341344 -0.13155964 -0.099179015 -0.14731732
0.1652493 -0.005764526 0.029067324 -0.026815608
00000000: 865c 513e 0591 9dbe 10ee 19bd 65a9 8a3e
00000010: 23e9 8bbe d76c bc3d 222f 44bb 0060 c23e
00000020: 409f 3dbe 9764 a1be 4b18 86be c4b4 7c3e
00000030: 48de 85bc 92b7 06be 5e1e cbbd 5ada 16be
00000040: 1d37 293e 59e4 bcbb 991e ee3c 68ac dbbc

encoder.10.running_var f4 [20]
0.6653197 0.83319736 0.5876062 0.74422616 0.30727077 0.15152417 0.28123802 0.7092158
0.34774396 0.45362172 0.7169383 0.840169 0.5883224 0.18528321 0.3292262 0.20737353
0.3855602 0.36726162 0.15829825 0.4331596
00000000: 6452 2a3f 6c4c 553f 5c6d 163f 9b85 3e3f
00000010: 9852 9d3e 2729 1b3e 6efe 8f3e 2b8f 353f
00000020: 7f0b b23e 1b41 e83e 4589 373f 5115 573f
00000030: 4c9c 163f e2ba 3d3e 5690 a83e ba59 543e
00000040: 2668 c53e b709 bc3e f018 223e 18c7 dd3e

encoder.13.weight f4 [40, 20, 1, 8]
-0.022672253 -0.004978411 -0.038062733 0.10298653 -0.031186515 0.042527154 -0.045740094 0.054947246
-0.021591304 -0.097629435 -0.042480923 -0.05069617 0.04294233 -0.00036101346 -0.07714665 0.003101314
0.020486396 -0.015956178 -0.019663934 0.07727031 -0.054770775 0.02607542 -0.030827923 -0.005751972
0.0053627077 0.02494176 -0.0081576025 -0.013228964 0.08166362 -0.055127792 -0.05523787 -0.032661106
0.057102125 -0.061119374 0.012404213 -0.003944249 -0.07529804 -0.01376354 -0.009163921 0.00075976027
-0.026888935 -0.0030831867 0.008436837 0.04412182 0.02883921 0.020654483 -0.03153576 -0.030260235
0.044174984 0.0066280225 0.086175926 -0.017147562 0.15298526 0.030475302 0.012495751 -0.030499144
0.021236913 0.026096117 -0.05474127 0.054655444 -0.02202568 0.033751942 -0.0094884345 0.027934574
-0.0054101152 0.005715043 0.06967196 0.0046920427 -0.042449143 -0.03109097 -0.009352367 -0.038717963
0.01815739 0.0039183926 -0.010069704 -0.053597998 -0.09309754 -0.07038733 -0.016402347 -0.017259054
-0.01698797 0.0020913915 -0.05180525 0.01811837 0.03601646 0.011851081 0.024420217 0.015932176
-0.039240364 -0.0026421987 -0.052651953 0.032028496 -0.022966653 0.049874242 0.13086322 0.04423941
0.088347465 0.02486677 0.01945334 0.0037091726 0.047229074 -0.042906743 -0.013143326 -0.004482411
0.08841895 -0.058999557 -0.0018479043 0.077726774 0.04713762 0.022078509 0.062035803 0.07167421
0.02066853 -0.01917293 -0.031729627 -0.083682105 0.07083663 -0.046170916 -0.06616756 -0.05194736
-0.025543557 -0.0012576381 0.02842649 0.011904317 -0.013424023 -0.008789323 0.0009619317 -0.10768723
0.0013442391 0.05678106 -0.02101284 -0.052754167 0.025156127 -0.058839325 -0.052038833 0.044181034
-0.023557499 -0.037910197 -0.016918989 -0.06066223 -0.022408526 -0.009843012 0.06297542 0.003532101
0.045272816 -0.03099481 -0.04064408 0.08715268 0.043622214 0.080513015 0.06594911 0.038781453
0.044687934 0.09709958 0.04324695 -0.026108451 0.06393986 -0.0650688 0.06498829 -0.025390055
0.00034574617 0.08968189 -0.0031214333 0.04038966 0.03464804 -0.0016696169 0.007131737 0.058030985
0.06023645 0.047476638 -0.013831619 0.011872602 0.10867781 -0.0017106264 -0.07024745 0.03479203
-0.031568944 -0.0386387 -0.052423794 0.058475498 -0.036053695 0.081089675 -0.073718205 -0.052273948
0.029517695 0.08337518 0.026766365 0.07853791 0.012197457 0.030852798 -0.053414892 -0.07102076
0.024831614 -0.05715069 0.10728937 0.029381497 0.064045295 0.11600295 -0.036949173 0.023565475
-0.06163297 0.016864903 -0.033042055 0.04628257 -0.06574562 -0.024856953 -0.0005683649 0.13066295
-0.058618315 -0.009548584 0.058155917 0.013861424 0.08259477 -0.024474688 -0.07853147 -0.0011983132
-0.0041252878 0.08439408 -0.044526014 -0.0110561745 -0.077145964 -0.03717225 -0.020932406 -0.0037235385
0.021012532 0.045019723 -0.009270075 -0.030834831 0.0065555647 -0.042818096 0.036081735 -0.041545235
-0.011723394 -0.0128643885 -0.01902961 0.12925111 -0.056630798 -0.042296927 -0.013139899 -0.026957486
-0.013726951 -0.023858257 0.03969922 0.09041909 -0.049922332 0.014251684 -0.00690285 -0.09480851
0.05103556 -0.001922713 -0.034089167 0.05558674 0.05446495 -0.051044744 -0.07842424 0.03341152
00000000: 29bb b9bc f021 a3bb abe7 1bbd 9aea d23d
00000010: dd7a ffbc f430 2e3d f759 3bbd 5d10 613d
00000020: 3fe0 b0bc f1f1 c7bd 7a00 2ebd caa6 4fbd
00000030: 4ce4 2f3d 6846 bdb9 10ff 9dbd 6a3f 4b3b
00000040: 16d3 a73c 88b6 82bc 4216 a1bc e53f 9e3d
00000050: 5257 60bd 1f9c d53c d78a fcbc 0a7b bcbb
00000060: a7b9 af3b a952 cc3c 77a7 05bc 4cbe 58bc
00000070: 423f a73d aecd 61bd 1b41 62bd a7c7 05bd
00000080: ebe3 693d 4f58 7abd 0a3b 4b3c c23e 81bb
00000090: dc35 9abd 7980 61bc 4524 16bc a62a 473a
000000a0: 2f46 dcbc 4a0f 4abb a93a 0a3c 15b9 343d
000000b0: 3540 ec3c 9733 a93c a42b 01bd 50e4 f7bc
000000c0: d4f0 343d e22f d93b 017d b03d 0b79 8cbc
000000d0: 2ba8 1c3e 57a7 f93c faba 4c3c 57d9 f9bc
000000e0: 09f9 ad3c 86c7 d53c 6238 60bd 63de 5f3d
000000f0: 336f b4bc 7a3f 0a3d 6175 1bbc 0cd7 e43c
00000100: 5647 b1bb 4145 bb3b 2cb0 8e3d b5bf 993b
00000110: 27df 2dbd 7db2 febc ac3a 19bc ba96 1ebd
00000120: cfbe 943c dc65 803b 66fb 24bc 9389 5bbd
00000130: eca9 bebd 3c27 90bd 375e 86bc dc62 8dbc
00000140: 5b2a 8bbc ba0f 093b be31 54bd fa6c 943c
00000150: ff85 133d 092b 423c e80c c83c 3284 823c
00000160: 81ba 20bd bd28 2dbb 93a9 57bd 5030 033d
00000170: 9024 bcbc ef48 4c3d 0201 063e 6234 353d
00000180: 84ef b43d 65b5 cb3c 9c5c 9f3c 9715 733b
00000190: 4673 413d fbbe 2fbd 1b57 57bc 30e1 92bb
000001a0: ff14 b53d 85a9 71bd 6135 f2ba 372f 9f3d
000001b0: 6113 413d fddd b43c 4119 7e3d eec9 923d
000001c0: 0d51 a93c 8c10 9dbc edf6 01bd 8661 abbd
000001d0: cc12 913d b71d 3dbd dc82 87bd c1c6 54bd
000001e0: b940 d1bc 55d7 a4ba acde e83c 530a 433c
000001f0: 6ff0 5bbc 1801 10bc 252a 7c3a 1f8b dcbd
00000200: 2e31 b03a 4293 683d 1f23 acbc c114 58bd
00000210: 3914 ce3c 8101 71bd ac26 55bd 2cf7 343d
00000220: a8fb c0bc b947 1bbd b199 8abc f578 78bd
00000230: 1692 b7bc 9644 21bc 42f9 803d d27a 673b
00000240: fd6f 393d d4e8 fdbc 687a 26bd 1b7d b23d
00000250: 35ad 323d 02e4 a43d 5410 873d 4dd9 1e3d
00000260: b20a 373d 25dc c63d b723 313d 64e1 d5bc
00000270: e7f2 823d ca42 85bd 9518 853d cefe cfbc
00000280: 4445 b539 24ab b73d f690 4cbb a16f 253d
00000290: 1aeb 0d3d 0cd7 daba 59b1 e93b e6b1 6d3d
000002a0: 7fba 763d dd76 423d 049e 62bc 4d85 423c
000002b0: 7992 de3d 1937 e0ba e5dd 8fbd 1682 0e3d
000002c0: 704e 01bd 9d43 1ebd 55ba 56bd 0184 6f3d
000002d0: 0aad 13bd 5812 a63d 92f9 96bd 351d 56bd
000002e0: 18cf f13c 9bc0 aa3d 2345 db3c 7cd8 a03d
000002f0: d8d7 473c 02bf fc3c 93c9 5abd 5573 91bd
00000300: ab6b cb3c d816 6abd 87ba db3d 77b1 f03c
00000310: 2e2a 833d f492 ed3d 0458 17bd 620c c13c
00000320: da72 7cbd 4428 8a3c 1b57 07bd cb92 3d3d
00000330: a4a5 86bd cfa0 cbbc 53fe 14ba 82cc 053e
00000340: c219 70bd aa71 1cbc e634 6e3d 071b 633c
00000350: 7227 a93d 247f c8bc 1bd5 a0bd b810 9dba
00000360: 6c2d 87bb ced6 ac3d e960 36bd f524 35bc
00000370: b4fe 9dbd ee41 18bd 707a abbc 9c06 74bb
00000380: 7922 ac3c 9a66 383d 83e1 17bc 5499 fcbc
00000390: 10d0 d63b 0762 2fbd 71ca 133d 562b 2abd
000003a0: 7a13 40bc 28c5 52bc fce3 9bbc 675a 043e
000003b0: b2f5 67bd 8b3f 2dbd bb48 57bc f2d5 dcbc
000003c0: 01e7 60bc 6472 c3bc a69b 223d a52d b93d
000003d0: 5c7b 4cbd e57f 693c 4d31 e2bb f72a c2bd
000003e0: aa0a 513d 8b03 fcba 15a1 0bbd ecae 633d
000003f0: a416 5f3d 4b14 51bd e39c a0bd 85da 083d

encoder.13.bias f4 [40]
-0.029217428 0.019086074 -0.045002826 0.017668582 -0.0772687 -0.049490992 0.07122999 -0.01330675
-0.013974712 -0.043240115 -0.0127805155 -0.014984436 -0.0047586174 -0.0051155793 0.07648127 -0.0069789146
-0.0178541 0.02150917 0.04239791 -0.022808097 0.04400971 0.016503822 -0.059110276 -0.071220964
-0.05953101 0.029548317 0.029378593 0.027193181 0.02286865 0.06356909 0.015751084 0.00032526246
0.05400382 -0.06339709 0.07274907 0.005192979 -0.039535366 -0.07154251 0.02276455 -0.0043261335
00000000: 6359 efbc 665a 9c3c e254 38bd b4bd 903c
00000010: 0d3f 9ebd 11b7 4abd 07e1 913d 8e04 5abc
00000020: 31f6 64bc 8c1c 31bd 5e65 51bc 4881 75bc
00000030: 2dee 9bbb 97a0 a7bb 36a2 9c3d 61af e4bb
00000040: c342 92bc 0034 b03c 6ea9 2d3d 0cd8 babc
00000050: 8743 343d 0633 873c 9e1d 72bd 4cdc 91bd
00000060: cad6 73bd 500f f23c 60ab f03c 3cc4 de3c
00000070: 0957 bb3c 8330 823d 6b08 813c fd87 aa39
00000080: 1c33 5d3d 55d6 81bd 77fd 943d dd29 aa3b
00000090: d6ef 21bd e184 92bd b97c ba3c 3dc2 8dbb

encoder.14.weight f4 [40]
0.9630385 0.9790935 0.99266136 0.9750881 1.0151792 1.0663395 1.0464627 1.015493
1.004272 1.0330738 1.0002023 1.0029415 1.0687293 0.96446383 0.9804995 1.0279982
1.0133319 1.0068688 0.9930855 1.0255864 0.9971038 1.0240247 1.1847608 1.0574398
1.0016606 1.0628912 1.0116347 0.9772557 1.0439394 1.0553294 1.0773448 0.97122985
1.0743077 1.0245006 0.96116054 1.0008651 1.1083953 1.0226644 0.99550354 0.9529284
00000000: b189 763f dfa5 7a3f 0e1f 7e3f 609f 793f
00000010: 64f1 813f d07d 883f 7df2 853f adfb 813f
00000020: fc8b 803f c33b 843f a106 803f 6360 803f
00000030: 1fcc 883f 1ae7 763f 0402 7b3f 7295 833f
00000040: dcb4 813f 14e1 803f da3a 7e3f 6a46 833f
00000050: 3242 7f3f 3e13 833f 3ea6 973f 305a 873f
00000060: 6a36 803f d20c 883f 3f7d 813f 6e2d 7a3f
00000070: ce9f 853f 0915 873f 6fe6 893f 85a2 783f
00000080: ea82 893f d622 833f 9e0e 763f 591c 803f
00000090: e6df 8d3f abe6 823f 52d9 7e3f 1ef3 733f

encoder.14.bias f4 [40]
-0.043853454 -0.00781798 -0.026224963 -0.07771672 0.021856932 0.076467924 0.013113395 -0.15508074
-0.016854871 0.025209298 0.0039116116 0.083244056 -0.098291636 -0.036753766 0.06766701 0.11637086
-0.068530224 -0.08661158 -0.093046285 -0.035984006 -0.0219638 -0.17716642 -0.0663066 -0.1345978
0.10821213 -0.0881577 -0.12905431 -0.06919773 0.0041031535 -0.20954594 -0.34898216 -0.057257373
-0.13489999 -0.15891115 -0.016604971 -0.0643437 -0.059956446 -0.121818274 -0.10274899 0.012403793
00000000: ae9f 33bd fc16 00bc bcd5 d6bc f229 9fbd
00000010: 4f0d b33c 379b 9c3d 91d9 563c 7ccd 1ebe
00000020: 3a13 8abc bb83 ce3c fa2c 803b dc7b aa3d
00000030: 204d c9bd 1e8b 16bd 0095 8a3d d853 ee3d
00000040: 9359 8cbd 6961 b1bd 0d8f bebd f763 13bd
00000050: 6ded b3bc 1d6b 35be c1cb 87bd 01d4 09be
00000060: 529e dd3d 068c b4bd d026 04be 8ab7 8dbd
00000070: bf73 863b 3693 56be caad b2be b586 6abd
00000080: 3923 0abe 9bb9 22be 2607 88bc a1c6 83bd
00000090: e494 75bd dc7b f9bd 106e d2bd 4739 4b3c

encoder.14.running_mean f4 [40]
0.12625226 0.14468916 0.041729957 -0.059655376 -0.1600972 -0.03445627 -0.032036137 -0.15189911
-0.015659869 0.029704036 -0.062179953 -0.04406159 -0.15320687 -0.032896698 0.21043678 -0.091084495
-0.051803548 -0.0347083 0.08156339 -0.0046242205 0.064952955 0.21737172 -0.046972852 -0.08711244
-0.12525256 -0.0018758747 0.0010448511 0.024883969 0.05414791 0.033061124 0.002184499 0.13435483
0.016148102 -0.11777911 0.12682062 0.004768537 -0.09551111 -0.15227947 0.05751538 -0.028923247
00000000: 4648 013e 6529 143e 08ed 2a3d 3259 74bd
00000010: 85f0 23be 0522 0dbd 5338 03bd 718b 1bbe
00000020: 2049 80bc e155 f33c 68b0 7ebd ed79 34bd
00000030: 43e2 1cbe b0be 06bd bd7c 573e 828a babd
00000040: f52f 54bd 4a2a 0ebd b50a a73d c686 97bb
00000050: 0e06 853d b196 5e3e 9b66 40bd 0268 b2bd
00000060: 3542 00be e9df f5ba 63f3 883a 77d9 cb3c
00000070: 33ca 5d3d 1a6b 073d d029 0f3b 5094 093e
00000080: 0649 843c 2d36 f1bd 44dd 013e 6341 9c3b
00000090: 549b c3bd 26ef 1bbe 3f95 6b3d 72f0 ecbc

encoder.14.running_var f4 [40]
0.50729835 0.3938198 0.23850746 0.61264265 0.35542917 0.49706733 0.38811445 0.5824243
0.7538848 0.38311955 0.28122342 0.37219718 0.40628475 0.30900055 0.3841955 0.3036892
0.23687503 0.33668077 0.59626085 0.31315312 0.48943564 0.2477175 0.24684064 0.41289648
0.8666149 0.3777521 0.39297622 0.27824908 0.57254684 0.31490004 0.16476986 0.49564177
0.29407603 0.38310128 0.44288567 0.20226447 0.19926235 0.37951392 0.30613795 0.41958985
00000000: 4ede 013f c0a2 c93e 4d3b 743e 26d6 1c3f
00000010: d0fa b53e 9c7f fe3e f0b6 c63e c219 153f
00000020: 98fe 403f 3f28 c43e 84fc 8f3e a190 be3e
00000030: 8e04 d03e 5235 9e3e 46b5 c43e 277d 9b3e
00000040: 5e8f 723e 6c61 ac3e 8da4 183f 9b55 a03e
00000050: 4f97 fa3e a8a9 7d3e cbc3 7c3e 2b67 d33e
00000060: 79da 5d3f b968 c13e 2e34 c93e aa76 8e3e
00000070: 6e92 123f 943a a13e 6eb9 283e c2c4 fd3e
00000080: 2291 963e da25 c43e e9c1 e23e 6b1e 4f3e
00000090: 6e0b 4c3e a64f c23e 1dbe 9c3e 7bd4 d63e

encoder.17.weight f4 [1, 40, 1, 8]
-0.01162729 0.019022463 0.050994214 -0.017253011 -0.056528885 -0.04961814 0.013117182 0.022874217
0.005223095 -0.043373097 -0.06701612 -0.021854626 -0.011197089 0.0054670805 -0.044082694 0.012771666
0.018247979 0.013136252 0.00019517957 -0.025683956 0.018610757 0.05884482 -0.0009387321 0.027613474
0.019001972 0.026259186 0.013207831 -0.059486367 0.021083156 0.03145212 -0.044496894 0.008019331
-0.008954894 -0.0098337205 0.013538311 0.038563345 0.005483901 -0.10220651 0.042820375 -0.00091877754
0.0002474176 -0.01812407 -0.04258502 0.0462147 0.042820193 -0.037971344 -0.004927114 0.0016066323
0.002618704 -0.025564315 -0.046743017 0.0331079 -0.08745269 0.027088843 0.027358482 -0.0018066289
0.011231419 0.030833956 -0.04432301 -0.03893078 0.05570497 -0.057716697 0.020132802 -0.032681916
-0.0051448266 0.0018879522 -0.0257063 -0.05717688 0.033007186 -0.050733995 -0.012233476 -0.019673277
-0.002267313 -0.035371613 0.01005956 0.09283557 0.0059808427 0.001558296 -0.046659913 0.030376589
0.005432925 0.02369885 0.034369163 0.037624653 0.08026767 0.018246006 -0.0046211574 -0.003833537
-0.017433714 -0.017727833 -0.04477315 -0.04829357 0.06812322 0.016845614 0.049313627 -0.02055913
0.0046027075 0.017265309 0.008458904 -0.028407639 -0.098897874 0.02612313 -0.055415172 0.020678468
-0.033089254 -0.048573043 -0.005057057 -0.009133493 -0.016941002 0.01436174 0.030114342 -0.018875843
-0.020292552 -0.031785652 -0.0014199923 0.06341953 0.02068772 -0.0057980786 -0.03490922 -0.025963457
-0.03733189 -0.030508406 0.033139247 0.034436353 0.03420715 -0.0017567534 0.012294667 0.01059495
-0.0019546875 0.0027948879 0.004751585 0.041194044 0.040908445 -0.08948098 0.04080939 -0.00946398
-0.0038585549 0.012779701 0.043340888 0.02488904 -0.06058022 -0.067289375 0.020008124 -0.0071878596
-0.010690601 0.022056727 0.05421192 0.016419083 0.016683891 0.059354678 -0.041003775 0.0030972862
0.0031944565 -0.00042332048 0.008300252 0.03710233 0.026622942 -0.038485672 -0.064317755 0.037171017
-0.01298248 -0.0033972254 0.02507146 0.030460076 0.022748638 0.06858986 -0.006416131 0.028554108
-0.005273535 0.011624214 0.029715566 -0.01663332 -0.05544295 0.0052632163 0.06391827 -0.0053938148
-0.019292418 -0.03224934 0.01639738 0.086919755 0.059249267 -0.10658471 0.038334906 -0.021163912
0.006817353 0.018159399 0.014736626 -0.037942696 -0.06025589 -0.06906073 0.013862203 -0.0032597214
-0.01511237 -0.074929304 -0.0661127 0.046953097 -0.050932944 0.042682208 -0.018632742 0.0030652108
0.018035399 0.01937302 -0.023943018 -0.08900488 0.006499345 0.03891381 -0.034487657 -0.002721528
0.0018975043 -0.028328972 -0.015654573 -0.025948852 0.025323097 -0.066191085 0.0050459527 -0.021757137
0.028012652 0.035782613 0.018438613 -0.010805437 0.05235326 -0.020064801 0.010244982 -0.01053171
-0.020928375 -0.031261157 0.0106755635 0.042666387 -0.026402185 0.029078897 0.03938768 -0.053376142
0.025609493 0.038977418 0.009930716 -0.06156511 -0.044695508 0.035005406 0.0015602749 -0.002513895
0.012678495 0.029080639 0.0070396187 -0.06257446 -0.096637376 0.006197613 -0.0278675 -0.00044050257
0.031409264 -0.006975173 -0.0647054 0.027306864 -0.007993181 -0.02026647 0.029421568 -0.0018786627
00000000: 6480 3ebc ffd4 9b3c 4fdf 503d 3056 8dbc
00000010: d58a 67bd 643c 4bbd 73e9 563c b662 bb3c
00000020: 7f26 ab3b fda7 31bd bf3f 89bd 7908 b3bc
00000030: ff73 37bc 3225 b33b 0e90 34bd 4040 513c
00000040: c97c 953c 6f39 573c 1ea9 4c39 2967 d2bc
00000050: 9675 983c 4407 713d 3f15 76ba a735 e23c
00000060: 06aa 9b3c 811d d73c a965 583c faa7 73bd
00000070: 95b6 ac3c f0d3 003d 6042 36bd 8363 033c
00000080: 8cb7 12bc 9d1d 21bc cbcf 5d3c 99f4 1d3d
00000090: 4cb2 b33b a651 d1bd 6b64 2f3d 1eda 70ba
000000a0: d4b7 8139 ee78 94bc a16d 2ebd a04b 3d3d
000000b0: 3a64 2f3d d787 1bbd a173 a1bb a295 d23a
000000c0: 909e 2b3b 416c d1bc 9b75 3fbd 269c 073d
000000d0: 651a b3bd 6ce9 dd3c e51e e03c 68cc ecba
000000e0: fc03 383c 7e97 fc3c 0b8c 35bd e275 1fbd
000000f0: e52a 643d 5868 6cbd 8ced a43c 79dd 05bd
00000100: ef95 a8bb 2a75 f73a 0596 d2bc 4e32 6abd
00000110: 8b32 073d 73ce 4fbd eb6e 48bc da29 a1bc
00000120: 3397 14bb d3e1 10bd dad0 243c 9320 be3d
00000130: f2fa c33b bd3f cc3a 771e 3fbd 53d8 f83c
00000140: ae06 b23b 1724 c23c aec6 0c3d 4f1c 1a3d
00000150: 6063 a43d a678 953c 146d 97bb 143c 7bbb
00000160: 26d1 8ebc f639 91bc 0d64 37bd 7acf 45bd
00000170: 3084 8b3d d0ff 893c 16fd 493d 9f6b a8bc
00000180: 4fd2 963b fa6f 8d3c 3797 0a3c 23b7 e8bc
00000190: f88a cabd 2d00 d63c 05fb 62bd e465 a93c
000001a0: 9988 07bd 87f4 46bd abb5 a5bb a5a4 15bc
000001b0: dbc7 8abc 814d 6b3c 5ab2 f63c 83a1 9abc
000001c0: 913c a6bc ac31 02bd 091f baba 19e2 813d
000001d0: 4b79 a93c cffd bdbb f8fc 0ebd 51b1 d4bc
000001e0: 53e9 18bd c4ec f9bc 05bd 073d 220d 0d3d
000001f0: cc1c 0c3d dd42 e6ba 926f 493c 7196 2d3c
00000200: 371a 00bb 702a 373b 2fb3 9b3b 16bb 283d
00000210: 9d8f 273d ce41 b7bd bf27 273d cf0e 1bbc
00000220: cfdf 7cbb f361 513c 3786 313d 1ae4 cb3c
00000230: f722 78bd 03cf 89bd 14e8 a33c 2388 ebbb
00000240: a127 2fbc 4fb0 b43c 510d 5e3d 5081 863c
00000250: a8ac 883c e41d 733d 93f3 27bd d7fb 4a3b
00000260: 165a 513b 1df1 ddb9 c8fd 073c 9df8 173d
00000270: 5b18 da3c 27a3 1dbd 07b9 83bd a340 183d
00000280: 78b4 54bc fca3 5ebb aa62 cd3c 6987 f93c
00000290: 5a5b ba3c d778 8c3d 683e d2bb 4eea e93c
000002a0: 9ecd acbb 7d73 3e3c 0f6e f33c 9a42 88bc
000002b0: 2618 63bd 0f77 ac3b 95e7 823d 99be b0bb
000002c0: 220b 9ebc e217 04bd cc53 863c fc02 b23d
000002d0: 5caf 723d 1649 dabd 1005 1d3d f15f adbc
000002e0: 1a64 df3b 05c3 943c e471 713c cd69 1bbd
000002f0: e1ce 76bd b66f 8dbd 4b1e 633c 0da1 55bb
00000300: e099 77bc 8974 99bd 1866 87bd e451 403d
00000310: 109f 50bd 8ad3 2e3d b1a3 98bc b4e1 483b
00000320: f9be 933c 2bb4 9e3c 2624 c4bc 3148 b6bd
00000330: 75f8 d43b 1664 1f3d ee42 0dbd aa5b 32bb
00000340: aeb5 f83a 2912 e8bc 053e 80bc b092 d4bc
00000350: 6272 cf3c 318f 87bd 8558 a53b 063c b2bc
00000360: ca7a e53c ca90 123d 930c 973c 4a09 31bc
00000370: 5f70 563d f05e a4bc 92da 273c 328d 2cbc
00000380: fc71 abbc b30b 00bd 8fe8 2e3c f3c2 2e3d
00000390: 6549 d8bc de36 ee3c fa54 213d f1a0 5abd
000003a0: 00cb d13c c9a6 1f3d 71b4 223c b22b 7cbd
000003b0: a312 37bd d461 0f3d 2382 cc3a 29c0 24bb
000003c0: 76b9 4f3c 853a ee3c 9aac e63b 0a27 80bd
000003d0: d1e9 c5bd 5915 cb3b 624a e4bc 41f3 e6b9
000003e0: 00a7 003d fe8f e4bb 4484 84bd a5b2 df3c
000003f0: d5f5 02bc de05 a6bc 8005 f13c 763d f6ba

decoder.1.weight f4 [1, 1, 1, 8]
-0.014269597 0.004736728 0.20211865 0.28821266 -0.2636277 0.20741011 -0.075483285 0.02426829
00000000: 07cb 69bc 8e36 9b3b 31f8 4e3e 9c90 933e
00000010: 36fa 86be 5163 543e fb96 9abd 4bce c63c
