model/FCVE_multi_epoch200.pt (torch, 165261 bytes, 62 tensors)

encoder.1.weight f4 [40, 2, 1, 8]
00000000: d427 febc 32c0 953e d0f0 bdbd b611 eabc
00000010: f7c3 603b 3a34 14be 4488 c23d d108 7bbe
00000020: acbd 343d 48b2 5cbd d101 c2bd 9490 663e
00000030: 0f1c 04be f28c c93b 669e 623d 71b4 11bc
00000040: 1645 02be 5350 073d d81b f53c 80c0 84be
00000050: 7e2d 6ebe 3ab4 81be 6dfc 78ba d84b 853e
00000060: 87e1 1f3e 3101 6abd 76f5 fabd 3391 a73c
00000070: ffe9 183d a842 6abd 9464 2d3e c9cc 023e
00000080: cca9 873e 9c52 dd3d 0b21 4dbe c540 e13d
00000090: 503c 4ebe 50c5 10bb a9be cd3c 9a08 4fbd
000000a0: a036 2d3b 5969 93bd 4aed 0bbc beff 72bc
000000b0: c8a8 0a3e 7b20 1abe 0e2b f5bd 9394 07b9
000000c0: 3266 343e 21b5 35bd fe02 013e 81dc 02be
000000d0: ca40 d5bd 0f51 a53d b6f6 2dbe 11f7 18bd
000000e0: 42a3 51bd f827 553e c7e8 67be ecbf 18be
000000f0: 13d8 06be 8588 5a3e 4ea0 5cbc a2e0 4abe
00000100: e8f1 813b e1d4 39be 2457 e03d ceb9 3dbd
00000110: 6d57 25bd f447 a5bd 65af db3c d38e 8dbe
00000120: 40af 903d d97b d53d df29 54bd cb95 43be
00000130: a292 ed3d d4ad 87be ff4c 7abe dc0e e83d
00000140: 6998 033e 9ce7 5b3e d8e6 593e aca1 30be
00000150: 6dac 11be e9cb 3abb 3428 0e3d 2bba a0be
00000160: 1f1d 59bd ed2e 243e 1df5 51be c508 d23c
00000170: 91a7 f7bd 96b4 143e 9edc 83bd 1945 793e
00000180: 2215 5dbe 187c 3c3e 0ea7 5cbe 416e 873e
00000190: 38ef 8c3d 9b35 883d 21c4 433e f47d 033e
000001a0: 342f 47bd 57a6 313e a947 80be 4dea e4bb
000001b0: 03e8 293e d99e 8fbe 443e 3b3c dc47 51be
000001c0: a78d 2cbe 945d d0bd 1b7b 663d 66f5 83bd
000001d0: f676 e83d 3829 d9bd 87d7 653d e2ad 17be
000001e0: 3a46 e23c db30 aebd 8a1a 2d3e 7d95 51be
000001f0: af65 313e 9f39 33bd 4004 a0bd 942a 79be
00000200: 2477 bebd 3fc8 8dbd 3f3d dbbd efd7 dabd
00000210: 05fa 61bd e73c 8e3c ba26 1f3e a65b a2bd
00000220: 1df7 173e d161 ea3d f7c0 193e aa9d 57be
00000230: 66c2 4e3e a9c1 6abe ecb8 733e d3e5 e43d
00000240: 01b1 613e 382d a43e 9536 933d 1188 00be
00000250: 79a5 7cbc 87ac 523d 76a0 45be 67cd 61be
00000260: 5c84 683d 5067 df3c 6473 a5bd 7180 4e3e
00000270: 5ce5 313d 377b 0abe fc23 cfbd 95b8 95bd
00000280: 1a99 3ebe d8a8 d1bd c50e 57be cd3c d03d
00000290: ddb8 593e 48b4 883c a57d 763e 035c f6bd
000002a0: 5b84 853d cbaa ad3d 2661 4dbd d8e9 233e
000002b0: 1f8a 24be b860 25be c664 423e c8f5 083d
000002c0: 137e a2bd bfed f03c aedb edbd 8dc6 d53d
000002d0: 97d6 e9bc 1cf4 5f3d 5143 29bd 9d9f 0fbe
000002e0: 6cad 6dbe 3ec2 60be 3a67 ffbd 0e9e d8bd
000002f0: 4261 f8bd 32f6 6b3e ccf7 e93d ea0b 79bd
00000300: 1304 7fbd aa05 c63d 02ec 363d c21f 51be
00000310: f165 f73c 512b 3a3e 742d ebbc 596d 9dbd
00000320: 1d12 3a3e 84f5 a63d 3aa8 f83d 78e5 bdbd
00000330: 2dae 323e 291a 28be 9718 983d 92b1 a1bd
00000340: 1bf8 32be f92b 73be 39e3 79bd 23e4 81bd
00000350: 0831 473d 80d0 fa3d 04cf 5c3d eda3 7c3e
00000360: c376 373d b304 1b3e e3ce cfbc 38bf 9e3c
00000370: f325 04bd a151 c7bd a034 e53c e2c2 b0bd
00000380: ffc8 ec3c 531d d4bd 45b7 6cbe 832b 4a3e
00000390: 94df 3cbc bfe1 55be c5b2 443e 8eb1 88bd
000003a0: f87b e23d 768b 853e 0300 a73d 36c6 883e
000003b0: b4ee 083e b02a 723d 4320 83be 5c8b 463e
000003c0: 5122 003e f1fc efbd 09a9 673e adfe d53d
000003d0: d4d8 ffbd 248a 27be 9995 2fbe a5f6 a4bc
000003e0: d495 11be df00 c1bd d771 9fbd ef40 27be
000003f0: 5831 32be 9c07 703e 9e1b 88be 6338 273e
-0.03102485 0.29248196 -0.09274447 -0.028572898 0.0034296492 -0.14473048 0.09498647 -0.24515082
0.044126198 -0.05388096 -0.09473003 0.2251609 -0.12901329 0.006150835 0.05532684 -0.008893118
-0.12721667 0.033035588 0.029920503 -0.25928116 -0.23259541 -0.25332814 -0.00094980636 0.26034427
0.15613376 -0.057130042 -0.12253849 0.020454979 0.03733253 -0.057192475 0.16932899 0.12773432
0.26496732 0.10806772 -0.20032136 0.10998682 -0.20140195 -0.0022090264 0.025115328 -0.050545312
0.0026430264 -0.07197828 -0.008540461 -0.0148314815 0.13540947 -0.15051453 -0.11971103 -0.00012929951
0.1761711 -0.04436219 0.12598798 -0.12779428 -0.10412748 0.08072101 -0.16988644 -0.037344996
-0.051181085 0.20816028 -0.22647391 -0.14916962 -0.13168363 0.2134114 -0.013465954 -0.19812253
0.003965605 -0.18147613 0.10954121 -0.046319775 -0.04036658 -0.080703646 0.026817033 -0.2764803
0.07064676 0.10424013 -0.051797744 -0.1910011 0.116002336 -0.26499808 -0.24443434 0.11330959
0.12851109 0.2147507 0.21279466 -0.17249173 -0.14225931 -0.0028502888 0.03470631 -0.31392035
-0.053006288 0.16033526 -0.2050366 0.025638947 -0.12092508 0.14522013 -0.06438564 0.24342765
-0.21590093 0.18406713 -0.21548101 0.26451305 0.06881565 0.066508494 0.19117786 0.12841016
-0.048629 0.1734861 -0.25054672 -0.0069859386 0.16592412 -0.2805088 0.0114284195 -0.20437568
-0.16850911 -0.101740986 0.056269746 -0.064432904 0.11350815 -0.10603565 0.056113746 -0.14812425
0.027621377 -0.08505412 0.16904655 -0.20467182 0.17323945 -0.043756124 -0.078133106 -0.24332649
-0.09300068 -0.069229595 -0.10705041 -0.10685717 -0.055170078 0.017363025 0.15542117 -0.07927637
0.1484036 0.11444438 0.15015016 -0.21056238 0.20191345 -0.22925438 0.23801011 0.11176648
0.22040178 0.3206575 0.07188145 -0.12551905 -0.015420311 0.051434066 -0.19299492 -0.22051011
0.056766853 0.027270943 -0.0807865 0.20166184 0.043431625 -0.13523565 -0.10114285 -0.07310597
-0.18613091 -0.102372825 -0.21001728 0.10167847 0.21261926 0.016687527 0.24071367 -0.120292686
0.065193854 0.08479842 -0.050141476 0.16007173 -0.16068314 -0.16150177 0.18983755 0.03343752
-0.07934203 0.029410241 -0.11614166 0.10438261 -0.028544707 0.05467616 -0.041323964 -0.14025731
-0.23210686 -0.21949098 -0.12470861 -0.105770215 -0.121279255 0.23043135 0.11424217 -0.060802378
-0.062259745 0.09669049 0.04465867 -0.20422271 0.030199977 0.18180586 -0.028708197 -0.07686872
0.18170972 0.08152297 0.12141462 -0.09272283 0.17449255 -0.1641623 0.07426565 -0.07895197
-0.17477457 -0.23747243 -0.061007712 -0.06342342 0.048630744 0.122467995 0.053908363 0.24671908
0.044790994 0.15138511 -0.025367206 0.01937829 -0.032262754 -0.09732366 0.027979195 -0.08630921
0.028904436 -0.10357156 -0.23116787 0.19743161 -0.011527915 -0.20886897 0.1920882 -0.06674491
0.110588014 0.26082963 0.08154299 0.26713723 0.13372308 0.05912274 -0.2561055 0.19389099
0.1251309 -0.117181666 0.22623076 0.10448966 -0.124925286 -0.1636129 -0.1714691 -0.02013714
-0.14217311 -0.09423994 -0.07785385 -0.16333364 -0.17401636 0.23440403 -0.2658357 0.16330104

encoder.1.bias f4 [40]
00000000: 87e2 7a3e 0e9b 383d c69b 293e 25d0 3abe
00000010: 3e02 883d 1eb5 123e 21ea 283e 2976 31be
00000020: e168 aebd 4dc0 a43d 45e3 18be dfcb 633d
00000030: 7022 083e bbe1 34be e158 28be 96be 66be
00000040: d07a 303e 7c01 45bd f3e3 b0bc 25eb 9b3c
00000050: b982 6fbe 8039 0dbe 8277 0cbe cad9 adbd
00000060: ec36 5fbe c393 26be 4934 fe3d 5d16 43bd
00000070: aa98 b9bb 92b1 c3bd 730e 333e 0d8c e23c
00000080: 87c7 2b3e 3eaf f7bc 8e11 f5bd bb80 583e
00000090: 1183 11be 1ee4 1b3e f564 453d 4cb9 f63d
0.24500476 0.045069747 0.16563329 -0.18243463 0.06641053 0.14326903 0.16495563 -0.17330231
-0.08516098 0.08044491 -0.14930446 0.05561435 0.13294387 -0.17664234 -0.16440155 -0.2253364
0.17234349 -0.04809712 -0.02159307 0.019033024 -0.2338971 -0.13791466 -0.13717464 -0.084888056
-0.21798295 -0.16267304 0.12412316 -0.04762875 -0.005663951 -0.09555353 0.1748598 0.027654672
0.16775332 -0.03023493 -0.11966239 0.21142857 -0.14210154 0.15223739 0.048191983 0.12047061

encoder.2.weight f4 [40]
00000000: 3955 803f 472c 803f 54f7 773f fc24 6d3f
00000010: 1865 783f b343 6f3f 43d2 673f 10d1 793f
00000020: 0e23 7c3f 6503 8d3f 8b52 7c3f f390 7d3f
00000030: a9cd 763f 0552 8a3f 5c32 793f 5d43 6f3f
00000040: 78b4 813f 651b 753f af85 6d3f eec3 813f
00000050: 4a79 743f 4a78 753f 47d1 783f 0580 753f
00000060: dda1 813f f383 873f b318 843f 97f7 7f3f
00000070: efd0 723f 6596 733f 4a27 763f 581c 7d3f
00000080: 3d65 833f 116c 803f e95a 843f 01f8 7a3f
00000090: aa16 8f3f 5d05 713f de66 7f3f 1b70 733f
1.0026008 1.0013512 0.9686177 0.9263456 0.97029257 0.93462676 0.9055521 0.9758463
0.9849099 1.1016661 0.9856345 0.990493 0.9640756 1.080628 0.9734247 0.93462163
1.01332 0.95744926 0.9278211 1.0137918 0.9549757 0.9588667 0.9719433 0.9589847
1.0127522 1.0587143 1.0320038 0.9998717 0.9485006 0.9515136 0.961537 0.98871374
1.026527 1.0032979 1.0340244 0.98034674 1.1178792 0.9414881 0.9976634 0.95092934

encoder.2.bias f4 [40]
00000000: 079b 55bc 130c 9c3d d122 d9bd f10b a53d
00000010: e265 cf3d 1289 8d3d fac8 5cbc 46f7 0d3d
00000020: 8089 ea3c 5e23 0cbd 1845 db3e b702 56bd
00000030: 1298 4f3d d258 06be f138 183c 3106 ffbd
00000040: e162 d4bd b533 df3d 89ca 453d 8ba8 03bc
00000050: dd07 eb3d 65fb 233d 27d6 bdbc 9878 9dbb
00000060: 2beb 68be 91ad 943e e906 213c f5e7 12bd
00000070: 6877 c7bc d0a5 fa39 6e74 2c3d 85eb 393e
00000080: 7441 333d c135 babd 9181 46be 5e05 3f3d
00000090: 5139 dfbd 1233 813c 23da 733d b6a5 ed3d
-0.01303745 0.076194905 -0.10602344 0.08058918 0.101268545 0.0691091 -0.013475651 0.034659646
0.028630018 -0.034213416 0.42826152 -0.052248683 0.050682135 -0.1311982 0.00929092 -0.12452353
-0.10370422 0.10898534 0.048288856 -0.008035789 0.11476109 0.04003467 -0.023173405 -0.0048056357
-0.2274596 0.2903867 0.009828308 -0.035865743 -0.02434893 0.00047807256 0.042103224 0.1815625
0.043763593 -0.09092284 -0.19385363 0.046635978 -0.10899604 0.015771423 0.059534203 0.116038725

encoder.2.running_mean f4 [40]
00000000: bc91 243e a3c4 88bd f0cc a03d 0835 e8be
00000010: 362a 31be d6b1 bc3d fc41 903d 67d1 6abe
00000020: b37d 4b3e fa74 c23d 51b0 a2bd b228 c2be
00000030: b0c9 cf3e ff40 72be c12b 173d 86e1 21bf
00000040: 770c 8c3d a4e0 53be 5848 a53e 6f85 0d3d
00000050: 7421 01bf 4a08 433e f43e aebd 1357 713d
00000060: 3df7 c5bd f75e 8ebd c170 9ebc 5ee5 a9be
00000070: 2329 42bd 436e 08be 7303 c9be 39da 003e
00000080: 8e7f 89be 1170 31be 3e2a a1be b06d 193f
00000090: c8e6 1dbe 75ed 763e 1d9e 4fbe 46c3 aebe
0.16071218 -0.066781305 0.07851589 -0.4535296 -0.17301258 0.09213607 0.070438355 -0.22931443
0.19872169 0.09494968 -0.07943786 -0.37921673 0.40583563 -0.23657607 0.03690696 -0.63234746
0.06838315 -0.20691162 0.32281756 0.03455108 -0.5044167 0.19046131 -0.08508101 0.05892093
-0.096662976 -0.06951707 -0.019340875 -0.33182806 -0.047402512 -0.13323312 -0.39260444 0.12583245
-0.2685513 -0.17327906 -0.3147754 0.59932995 -0.15420067 0.2411402 -0.20275159 -0.34133357

encoder.2.running_var f4 [40]
00000000: 8d88 6a3b c6c8 af3b af05 403b b7db bf3b
00000010: aa78 2c3c 0cc3 e73b 11e6 153c 617c 6d3c
00000020: 218f 5c3c a823 b53b b35e 583b d92a 2a3c
00000030: c1ad dd3b 1b04 933b de8a 4f3c 5718 223c
00000040: f4df 6f3b 11a3 653c 80b0 473c 9e8e 563b
00000050: 12e6 043c 2ee8 ea3b 22f1 4c3c 5a2d 1d3c
00000060: 4e62 9d3b 968c 4d3b be66 533b 98e8 fc3b
00000070: e765 403c 4ada 0d3c 556d e03c 19c1 f43b
00000080: 7c8e 943c bab9 893b 4f85 1e3c bb18 473c
00000090: e1e7 7a3b 226e c23b 8ae5 2c3c 1c24 873c
0.0035786957 0.00536451 0.0029300263 0.0058550495 0.010526815 0.007072812 0.00914909 0.014494986
0.013461859 0.005527932 0.003301543 0.010386192 0.006765098 0.0044865734 0.012667386 0.009893498
0.0036601992 0.014015929 0.012188077 0.0032738815 0.008111494 0.0071687913 0.012508662 0.009593332
0.0048029786 0.0031364313 0.0032257284 0.007718157 0.011743045 0.008658001 0.027395884 0.007469308
0.018134348 0.0042030485 0.009675338 0.012151892 0.0038285183 0.005933539 0.010552773 0.01649671

encoder.5.weight f4 [20, 40, 1, 8]
00000000: aba9 bdbc 8cc3 7fba 4d3b a9bc df71 953c
00000010: a92f aeb9 6ed6 38bd ffcf 1b3d 7566 b33c
00000020: b070 73bb 331a 2abd 58e3 91bc 516d 813b
00000030: 3ef3 6cbc 5612 da3c 7c61 063d cfb4 a53b
00000040: 8939 f7bd dcc5 a2bd da52 e2bc 937e c13b
00000050: 5460 dcbb a877 d0bc 19de 85bc eede e93c
00000060: b635 60bd dabe cc3c 4523 3ebd 8272 36bd
00000070: 4cb9 8e3c 9ef5 9f3c 7e16 5fbc 65ba 0b3d
00000080: 5cee 163d f43d cbbc 7125 363c c6f6 d53c
00000090: 2266 e2bb 403a d13b ef56 333c 6452 093c
000000a0: 03d6 e1bc e9f9 b53c ec66 753c 92a5 013c
000000b0: 6a5e d6bc 814a 33bd de63 97bb fae6 2bbc
000000c0: 459e 87bc 071b 2b39 dcde b83c 65db 27bc
000000d0: b26b 4abd cc41 b4bc d4c6 253d 783e 83ba
000000e0: 2161 f13c 4e4f 603d 7073 173b 2348 763c
000000f0: c092 493d 2a36 613d 2c0e 4c3d 3368 d9bc
00000100: 507b 64bc 99ac fe3c e36e 843d cea2 9b3c
00000110: ceea ddbb 3f80 8f3b eb74 cbbb 355e a33c
00000120: 2330 04bc bdd0 d4bc 871c 81bd e7a8 acbc
00000130: 9327 24bd 1968 24bc ebe0 2e3c 7a33 913d
00000140: 8b26 17bd 09d7 97bc 8c61 49bd 2b9b 2d3c
00000150: 6c90 073b 0f5e 67bd ed7f 5cbd 2c7c 26ba
00000160: 2acb 383d c817 983c 9ca2 633d f8da 9e3c
00000170: 0c9b 24bc 8d4b 7a3d 59a1 21bd 9d42 b4bc
00000180: ef3f a83c e9b3 30bd e025 6b3d 9267 2f3d
00000190: 9c47 0f3d 52e0 2b3d ebd0 00bd 97ec 7c3d
000001a0: f5b7 22bd 31c8 cfbc c36b 2b3c 8530 97bd
000001b0: 471f 14bd 87b9 143d c7d5 813d 194f f13b
000001c0: 18d0 00bd 6915 0fbd 408f 21bd d614 a73c
000001d0: 1221 58bd 46dd 9d3a 270f 4fbd b4d1 b4bc
000001e0: 42b3 7fbc 1684 b63c f9a2 87bc 4722 ba3b
000001f0: 55d1 96ba 957b 413c 4ab3 413d 6dc9 31bd
00000200: 898b 13bc 541e acbc d646 c13c 85e0 053d
00000210: c6a5 013d 61f6 b43c 439a 13bd 3b2d 12b9
00000220: 4034 1fbd 9566 bc3b d4f5 ea3c 2783 333c
00000230: 494f 08bd eb5c 6bbc 1e91 01bd 57ec 54bd
00000240: fbff 2bbd 6cbc ddbc fa89 a7bd c041 d7bc
00000250: b820 1dbd d02d 26bd ec20 33bd 8f15 2b3d
00000260: 2f7d fb3a e9b1 a3ba 513d 9bbd 3b70 4a3c
00000270: 286e e5bc f76e 2a3b d32f 0abb eb83 49bc
00000280: 18bb c33c 09a0 473d c6e9 18bd a6d6 1a3d
00000290: fa18 25bc aaa6 203c cb7f 30bd 58e8 373d
000002a0: 4447 ec3c 0ce5 9f3d 5e67 4c3c d2ee d23c
000002b0: 01ff fe3c 9d87 8a3d 295c 5c3d e40a aa3c
000002c0: e6bc 88bc 8f17 283c 1259 bc3c 8991 af3c
000002d0: 8030 1b3d 916d df3c 0cb4 c53c 85a0 cebc
000002e0: 9ad3 0fbc d4be e43c 1518 9a3a 2526 fabb
000002f0: baaa ccbb b50b 593d bcc0 073d 6437 a33d
00000300: d4d1 87bc 592b 33bd a8bd 7cbd 3658 e3bc
00000310: dd02 83bc 4aca 02bc d96d bcbc dbf2 9e3a
00000320: 7398 0ebd 252e 143c d857 e0bc abc0 48bd
00000330: 4a6d a1b9 469f 5f3b 15d8 00bc 71f6 273d
00000340: 3893 363c 5f06 1dbc aad2 8b3a d3cb 99bd
00000350: 9429 50bd f7bd 57bd 32ad d93c 4dfc 28bc
00000360: 6d0d 40bc 9fce 4a3d 3472 4b3d 6a4d fbbc
00000370: 4857 cfb9 abb8 e6ba 0b69 7c3d 9091 933b
00000380: 9a0a 1abd 848a a83b 6a86 80bc f5f5 70bb
00000390: a5e5 e13c 0c71 2ebc a26a 0f3d 64c6 86bc
000003a0: a4b9 9cba 0f90 43b7 342b 343d 612a 2c3d
000003b0: a8e3 9dbc 2c78 4a3d 3e23 843c 538d a9bb
000003c0: b320 abbc de67 b13c 448d a6bc ea4e e7ba
000003d0: e108 1abc b9a7 563c 13ad 943b 0852 4a3c
000003e0: 57d3 17bd a70f a1bc 3cd4 213d 732d 263d
000003f0: eb34 c13c 819e f5bc 7368 003c 6d96 84bb
-0.023152193 -0.0009756617 -0.02065816 0.018242775 -0.00033223376 -0.04512637 0.038040157 0.021899441
-0.0037146024 -0.04152889 -0.017808601 0.003949799 -0.01446229 0.026620071 0.032807812 0.0050569545
-0.12071521 -0.07947895 -0.027627397 0.0059049814 -0.0067253504 -0.025447682 -0.016341256 0.028548684
-0.054738723 0.024993349 -0.046420354 -0.044542797 0.01742234 0.0195263 -0.013616202 0.034113307
0.03684841 -0.024809815 0.011117325 0.026118647 -0.006909148 0.006385118 0.01094602 0.00838146
-0.027567869 0.022213893 0.014978152 0.00791301 -0.026168067 -0.043772224 -0.0046200594 -0.010492081
-0.016554961 0.000163179 0.022567205 -0.010245179 -0.049419113 -0.02200403 0.04047282 -0.0010013124
0.02946526 0.05476313 0.0023109578 0.015031847 0.049212217 0.054983296 0.049818203 -0.026538944
-0.013945416 0.03108816 0.064664625 0.01899853 -0.0067723757 0.004379302 -0.006209006 0.019942382
-0.008068117 -0.02597844 -0.06304269 -0.021076633 -0.040076803 -0.010034584 0.010673742 0.070898965
-0.03690199 -0.018535154 -0.049165294 0.010596077 0.0020685447 -0.056486186 -0.053832937 -0.00063509005
0.045115627 0.018566027 0.055575 0.019391522 -0.010046732 0.061107207 -0.039460514 -0.02200442
0.020538298 -0.043140326 0.057409167 0.04282338 0.0349804 0.041961975 -0.03144924 0.061749067
-0.039726216 -0.025364013 0.010462704 -0.07382301 -0.03616264 0.036309745 0.06339603 0.0073641655
-0.031448454 -0.034932528 -0.039443254 0.020395678 -0.052765913 0.0012044094 -0.05055156 -0.02207265
-0.015606703 0.02227978 -0.016557204 0.0056803557 -0.0011506478 0.011809249 0.047290124 -0.043404985
-0.009005436 -0.021010555 0.023593348 0.03268482 0.031652234 0.022090139 -0.036035787 -0.00013940495
-0.03886819 0.0057495334 0.028681673 0.010956562 -0.033278737 -0.014365415 -0.031632535 -0.051983204
-0.04199217 -0.027067386 -0.08180614 -0.02627647 -0.03836128 -0.040571034 -0.04373257 0.041768607
0.0019187088 -0.0012488934 -0.075800546 0.012355859 -0.028006628 0.0026006082 -0.0021085634 -0.012299518
0.023892924 0.048736606 -0.03733232 0.03780236 -0.010076756 0.009805361 -0.043090623 0.044899315
0.028842576 0.07807359 0.0124758165 0.025748644 0.031127455 0.067641474 0.05379883 0.020757146
-0.016691636 0.010259523 0.02299169 0.021431701 0.03788805 0.027273925 0.024133705 -0.025223026
-0.008778477 0.027923025 0.0011756445 -0.0076339417 -0.006245938 0.05298968 0.03314279 0.07969549
-0.016579546 -0.04374251 -0.061704308 -0.027752023 -0.015992576 -0.0079828 -0.023001598 0.001212682
-0.034813356 0.009044205 -0.027385637 -0.049011867 -0.0003078974 0.0034122034 -0.007864018 0.04100651
0.011143498 -0.0095840385 0.0010667641 -0.075095795 -0.050820902 -0.0526714 0.026571844 -0.010314059
-0.011721951 0.049513455 0.04966946 -0.030676562 -0.00039547146 -0.0017602643 0.061623614 0.0045034364
-0.037607767 0.0051434655 -0.015689094 -0.0036767696 0.027575323 -0.01064707 0.035013802 -0.016452022
-0.0011957181 -1.1656447e-05 0.043986514 0.042032603 -0.019273594 0.04943101 0.016130086 -0.005174318
-0.020889616 0.021655973 -0.020331033 -0.001764742 -0.009401531 0.013101512 0.0045372336 0.012348659
-0.037066784 -0.019660784 0.039509043 0.040570688 0.023584804 -0.029982807 0.007837403 -0.0040462525

encoder.5.bias f4 [20]
00000000: 19c2 263d 0fe0 c23c fc1d e93c ab8d e83c
00000010: 3757 cbbb ee1f 543d e5ec eebc 9dac 0ebd
00000020: f34e 5c3d 7f6c 47bc 41b0 1bbd 0840 18bd
00000030: 2524 523d 2005 bc3c e2b5 5fbd 6f18 5ebd
00000040: ee05 e9bc ab4e 813b 7076 4ebd 0e8b e43c
0.04071245 0.02378848 0.02845668 0.028387865 -0.006205465 0.051788263 -0.029165694 -0.034832586
0.05378623 -0.012171864 -0.038009886 -0.03717044 0.051304 0.022951663 -0.054616816 -0.05422252
-0.02844521 0.0039461455 -0.05040592 0.027898338

encoder.6.weight f4 [20]
00000000: 6fad 7b3f ca5b 723f 6f8a 7a3f 85ea 6c3f
00000010: 8ee6 8a3f b1c5 803f 9646 813f bb86 873f
00000020: 7867 773f c144 8d3f 96e5 773f 8049 7f3f
00000030: 82c7 7c3f acfd 7d3f d6e2 833f c9ae 773f
00000040: 596b 743f e238 803f 54d9 853f a288 843f
0.98311514 0.9467131 0.9786748 0.9254535 1.085161 1.0060331 1.0099666 1.0587991
0.96642256 1.1036607 0.96834695 0.9972153 0.98741925 0.992152 1.03036 0.96751076
0.954763 1.0017359 1.0456948 1.0354197

encoder.6.bias f4 [20]
00000000: 2c1e 83bd 408f 07bd 4911 f5bd 0ae1 22be
00000010: a77d f7bb 9cf1 bd3c 39bc 46bc 9e16 7cbe
00000020: 29f8 0a3b e685 b4be cc8f 04be 9e78 a1bd
00000030: 8aff e0bd 43ed 04be c25b 77be 76d0 25b9
00000040: c154 17be b442 94bd 58cb 7cbe cfab ce3c
-0.06402239 -0.0330956 -0.119661875 -0.15906158 -0.0075528207 0.023186497 -0.012129837 -0.24618003
0.0021205044 -0.35258406 -0.12945479 -0.07884334 -0.1098624 -0.12981133 -0.24156097 -0.00015813284
-0.14778425 -0.07239285 -0.24686944 0.02522841

encoder.6.running_mean f4 [20]
00000000: 6252 933d 8d7a be3d dc51 003f 0d02 a8bd
00000010: 0b19 bdbd 58d1 643c 470c 5bbe 18e7 ad3e
00000020: c275 e93e 2ede 133d 241b de3e 2348 003e
00000030: 485b 223f b0c2 88bd a68d ac3e f5ee 303e
00000040: 37af 3a3e 6805 0c3f 9cc5 f33e 4c68 86be
0.07193448 0.093007185 0.5012491 -0.08203516 -0.09233292 0.013965927 -0.21391402 0.33965373
0.45597655 0.03610056 0.43380082 0.12527518 0.63420534 -0.06677759 0.3370182 0.17278655
0.18230902 0.5469575 0.476117 -0.26251447

encoder.6.running_var f4 [20]
00000000: d081 a23e ce49 1a3f e4d7 9b3e 97a2 a93e
00000010: 6971 953e c86b e43e d585 d73e e709 ff3e
00000020: 91ab 273f 6b87 7a3e 11f9 1f3f f9ab 1d3f
00000030: 93e0 d13e 3ce4 ca3e fbcb 103f 0167 f43e
00000040: f530 3a3e 871c a13e 17a7 e03e 2eb7 a83e
0.31739664 0.60268867 0.3043815 0.3313186 0.29188088 0.4461348 0.42094293 0.49812242
0.65496165 0.2446572 0.6248942 0.61590534 0.4099165 0.39627254 0.5656125 0.47734836
0.18182738 0.31467077 0.4387748 0.32952255

encoder.9.weight f4 [20, 20, 1, 8]
00000000: 2554 8dbd 407a 9abc 55a0 e63b 3bf4 803d
00000010: 44be 993d a4ab acbc cf28 09bd 3d3d 5dbc
00000020: fab9 0d3d e840 723d ac32 e93b f7fb 623c
00000030: d28d cabc cc2a 60bd 2e9d 4cbd afa6 4bbd
00000040: d04a 00bd 0acf 8fbd b820 c23c ccec 683d
00000050: f5aa 123d 5dcf 43bd 883a 22bb 0543 44bd
00000060: 068a 753c ab89 903d a664 52bd d9b6 47bd
00000070: dde0 b63c 3c3c 4bbb cefa ae3c cf7d d0bc
00000080: 82fc 113d 7fee 513d 21d7 a0bd a3ec c3bd
00000090: 8fb4 3abd 8503 833d 3008 9b3d f842 613d
000000a0: 146b cfbc 8004 1c3d 8a28 31bd c8c3 3bbd
000000b0: b312 6cbb dd0b 86bd 237b ddbd cb1e c8bc
000000c0: 512d 913c 1de9 2dbd 2395 853d b3c3 8abd
000000d0: 7b23 073d a996 99bb da56 ce3c e350 78bd
000000e0: 7893 e33b ba19 a3bd d68e 16bd 6b5d 6b3d
000000f0: fff7 a43c 4ba3 593b 9b49 933b 34ed 453d
00000100: 4747 153d 6059 573c 2d5d 00bd 06f4 643d
00000110: 8ea1 bebd 1b0b 21bd b0d7 8bbc b91f 1cbd
00000120: 2623 4c3d 68e0 f5bc c4a4 c9bd 61d1 c3bd
00000130: 59cd 89bd e65f 203d 21b3 a33d e5fe be3d
00000140: b00a afbc e997 613d d635 57bd 67ce 9dbb
00000150: c901 a1bd 3fa0 78bd bfbf 01bb e05a 0dbb
00000160: ff95 8f3c 60bf fabc a230 b8bc c897 54bd
00000170: 91a8 ad3d adcf b33c 97f0 523d 1347 403c
00000180: c109 f53c f40e 213d db7c 92bb 8a9d 793c
00000190: 83b7 f43c e70d 35bd d05d 373d 707b 603d
000001a0: c684 34bd 2687 fb3b 0567 643d ca4f f0bc
000001b0: 6798 16bd 3a7b 81bd d68d cebd b688 eabc
000001c0: a2c4 5f3d 7e81 ccbd 2dd8 8bbd ed8a 74bc
000001d0: 8889 38bd 89e7 2a3b 9e23 403b 26a8 d53c
000001e0: 2a10 c2bc f482 d73c 4a94 47bd 9213 e23c
000001f0: 04b2 f63c d9a0 d53c 4a58 1bbc 8f52 8c3d
00000200: 59bc c13c 2c90 4fbd fd99 01bc 65dd 9dbd
00000210: 2833 b0bd 997f b4bd 8e57 b83a 39d2 b2bb
00000220: 8725 f13c 4116 b53d e991 7c3d c274 0d3d
00000230: ac21 bfbc 64d1 0dbd d88f 343d 54ad a8bc
00000240: 042d 263d 5266 f63c 393d a0bd 1edc 97bd
00000250: f58d ecbc 7f62 ffbc 9fbf ad3d 9b08 693d
00000260: ba50 a93b 72d1 5fbc 4d96 0a3d 04b9 553c
00000270: 3fb5 a5bd 6068 0b3c 2ab3 e03c dc39 8c3d
00000280: d2a1 67bd d774 eabc 247f fdbc 4250 2b3d
00000290: da98 803b 67cb aabc 2a1d 50bd 3bcd 9bbb
000002a0: 6bed b03d fc3e a83c 9e08 c03c 29c9 a33d
000002b0: e75a f3bc 73ab a73d db3d 9f3d 0242 083c
000002c0: 9eff 663c ec4f 483d edbc 883d aecb 873d
000002d0: f09b b83c c6c1 6f3d e3b8 443d 8f74 a63d
000002e0: 0dce 07bd e87f d03c bbfa 3bbd 2670 41bc
000002f0: ac40 25bc d071 0cbd 9ad8 e93c f8fd 7bbd
00000300: 394a 8a3c f303 723d d777 653c 889b 83bd
00000310: 293c d13c 7c25 4d3d 9ea2 913d cd80 413d
00000320: ea55 503d e667 6a3d 31cf 903d e224 833d
00000330: 01a4 cabc 1f6f babd 633b 6abd 7c45 943d
00000340: 8480 913d 9982 dd3d bcec 673d 8030 103d
00000350: b059 18bb 1d11 2a3d 146e 193d afc5 8abc
00000360: d8ac 63bc 9155 863c e619 34bd c1db eabc
00000370: b7ed a4bd 3b44 a2bd 895d 38bd a2a0 0cbc
00000380: 7128 153d 77fc 773c 2534 68bc 3587 1e3d
00000390: c62b c73c 05cd 073e 59e4 043d 746e 4f3c
000003a0: 89a4 7ebc b588 edbb 8cff 443d 1ec6 77bd
000003b0: 0d22 ad3c 0c8a 803c 1957 83bd 4a24 a2bc
000003c0: dee4 91bd c2e0 44bd 44df 8bbc d1b9 7b3d
000003d0: 0225 06bd 3f09 b9bc 9855 183d 8158 55bc
000003e0: fb70 f6bc e234 813c bedb 18bc ed55 5f3c
000003f0: a7fe 8bbd 8971 af3b 32de 0bbd 31d7 b43c
-0.06900815 -0.018857121 0.007038156 0.06296583 0.075069934 -0.021077938 -0.033486184 -0.01350337
0.03460119 0.05914393 0.0071166363 0.013854018 -0.024725828 -0.054728314 -0.049954586 -0.04971951
-0.031321347 -0.070219114 0.023697242 0.056866452 0.03580757 -0.04780518 -0.0024754126 -0.047915477
0.014986521 0.07057508 -0.051365517 -0.04875836 0.02232402 -0.0031011244 0.021359827 -0.025450615
0.0356412 0.05125284 -0.078535326 -0.09566619 -0.04558235 0.06397156 0.07569921 0.054995507
-0.025319614 0.03809023 -0.04325155 -0.04584101 -0.0036021888 -0.065452315 -0.10814502 -0.024428746
0.017721804 -0.042458642 0.06522586 -0.06775608 0.03299282 -0.0046871495 0.025187898 -0.060624015
0.00694507 -0.07963891 -0.036757313 0.057462137 0.020137785 0.0033208902 0.0044948584 0.048321918
0.03644493 0.013143867 -0.03133886 0.05589678 -0.09308158 -0.03931723 -0.017070621 -0.03811619
0.049838208 -0.030014232 -0.0984588 -0.0956142 -0.0672862 0.039153956 0.079931505 0.09325961
-0.0213674 0.055076513 -0.052541576 -0.004815865 -0.078616686 -0.060699698 -0.0019798127 -0.0021569058
0.017527578 -0.030608833 -0.022484127 -0.051902562 0.08479417 0.021949613 0.051498976 0.011735695
0.029911878 0.0393209 -0.0044704503 0.015235314 0.029872661 -0.04420271 0.0447672 0.05480522
-0.044071935 0.007676023 0.05576231 -0.029334921 -0.036766436 -0.06322332 -0.10085647 -0.028629642
0.054630883 -0.09985636 -0.06828342 -0.014925701 -0.045053035 0.0026077947 0.0029318104 0.026081156
-0.023689348 0.02630756 -0.048725404 0.027597222 0.030114181 0.026077675 -0.009481499 0.06851684
0.023649381 -0.050674602 -0.007910249 -0.07708243 -0.08603507 -0.088134 0.0014064179 -0.0054571894
0.02943684 0.08842135 0.06166259 0.034535177 -0.023331486 -0.03462352 0.044082493 -0.020590462
0.040570274 0.030078087 -0.07824177 -0.07415031 -0.028876284 -0.031174896 0.084838144 0.056892972
0.005167094 -0.0136607755 0.033834744 0.013044599 -0.080912106 0.008508772 0.027429182 0.06846973
-0.05655081 -0.028620167 -0.030944414 0.041824587 0.0039244713 -0.020848943 -0.050809063 -0.00475469
0.08639034 0.020537846 0.023441609 0.07997353 -0.029706432 0.08186998 0.0777547 0.008316519
0.01409903 0.048904344 0.0667666 0.06630646 0.022535294 0.058534406 0.048027884 0.081277005
-0.03315549 0.025451615 -0.045893412 -0.011806523 -0.01008622 -0.034288228 0.028545666 -0.0615215
0.016881095 0.059085798 0.014005623 -0.064261496 0.025541382 0.050084576 0.07111095 0.047241975
0.050863184 0.05722799 0.070707686 0.06403519 -0.024736406 -0.09103226 -0.05718554 0.072398156
0.071045905 0.10815925 0.056622252 0.035202503 -0.0023246817 0.041520227 0.037458494 -0.016939966
-0.01389619 0.016398223 -0.04397001 -0.02866924 -0.08053153 -0.0792317 -0.045011077 -0.00858322
0.03641552 0.015135876 -0.0141725885 0.038703162 0.024312865 0.13261802 0.03244433 0.012660611
-0.015542158 -0.0072489628 0.04809527 -0.060491674 0.0211344 0.015690826 -0.06413097 -0.019792695
-0.07123731 -0.04806591 -0.017074235 0.061456505 -0.032750137 -0.022587417 0.037191004 -0.013021589
-0.03008317 0.015772287 -0.009329734 0.013631326 -0.068356805 0.0053541106 -0.03414745 0.022075268

encoder.9.bias f4 [20]
00000000: 6a56 b63b cc6f 8a3d 7f8a 183b 4bba 2d3d
00000010: 8aa2 693c c2fb 1ebc 32b0 14bd 50e4 f2bc
00000020: 77ab 953d c386 743d c902 7d3c 449b 8cbd
00000030: c39b 843c b909 913d f2ad 263d ea6e 92bd
00000040: cea4 69bd 666b 8fbb 330d 9b3d 65a5 963c
0.0055645006 0.06759605 0.002327591 0.04241399 0.014259944 -0.009703578 -0.036300845 -0.029649884
0.07308095 0.05969883 0.015442559 -0.06865552 0.016187554 0.070819326 0.04069323 -0.071500614
-0.057041936 -0.0043768166 0.07570877 0.018389413

encoder.10.weight f4 [20]
00000000: 235e 843f ff98 713f 9774 883f 8194 833f
00000010: 2aa5 6f3f 955e 853f 6447 7c3f 11b1 773f
00000020: 558d 773f ce18 723f b295 6d3f 8493 803f
00000030: 7f35 863f b1e5 733f 30a3 7d3f 2862 8d3f
00000040: 8bf8 803f 773d 773f 206b 6a3f 8f03 8b3f
1.0341228 0.9437408 1.066058 1.0279695 0.93611395 1.0419489 0.98546433 0.96754557
0.9670003 0.945691 0.9280654 1.0045018 1.0485076 0.95272356 0.9907713 1.104558
1.0075849 0.9657816 0.9156971 1.0860461

encoder.10.bias f4 [20]
00000000: c815 a73d 184b 473d 612b c8bd 3b48 ccbc
00000010: a0fe 913d 7510 c5bd 4a88 8abe c297 debd
00000020: 3c35 d83d 5ba0 273e a28e c73d 8a58 40be
00000030: 659e dcbd ba66 e5bd f425 5a3a c5be 3bbe
00000040: 15ea 20be b8cb 1bbd a0c3 0d3c 9879 b8bd
0.08158451 0.0486556 -0.09773899 -0.024936786 0.07128644 -0.096222796 -0.27057105 -0.10868789
0.10557029 0.16369765 0.09744002 -0.18783775 -0.10772399 -0.11201234 0.00083216955 -0.18334492
-0.15714295 -0.03803608 0.008652598 -0.09007567

encoder.10.running_mean f4 [20]
00000000: 513c 7b3b 4f57 983e eaa3 843d 8fb9 b4bc
00000010: a46c 243c 9e18 89bd a474 43bc ee67 85be
00000020: 76c9 bb3d 55bc 643e 4238 ec3d 81c1 16bc
00000030: 21fe 883d 3538 27bd 8fbd 5fbd 3a3e 30be
00000040: e7c5 01be 1ad1 593d fbc8 fb3d 0d3a 913d
0.0038335512 0.2975411 0.064765766 -0.022061137 0.010035668 -0.066941485 -0.011929665 -0.26055855
0.09169285 0.22337468 0.11534168 -0.009201408 0.06689096 -0.040825088 -0.054624137 -0.17211238
-0.1267315 0.05317793 0.12294193 0.070911504

encoder.10.running_var f4 [20]
00000000: 05c3 bc3e cca6 8a3f aae9 823e af15 a53e
00000010: 015a cf3e 5213 ac3e d4cc 663e 371c 5f3f
00000020: f6e2 e23e b59f af3e b815 cb3e 904e 573e
00000030: 77a2 8d3e c3b7 ea3e 2a54 6c3f 1496 2d3f
00000040: 4895 813e 0e34 ab3e ddaa ad3e 35fe a93e
0.36867538 1.0832152 0.25568897 0.32243106 0.40498355 0.3360849 0.22539073 0.8715243
0.44313782 0.34301534 0.39665008 0.21026063 0.27663013 0.45843324 0.92315924 0.67807126
0.25309205 0.33438152 0.3391942 0.33201757

encoder.13.weight f4 [40, 20, 1, 8]
00000000: 1c75 403c 90ed c73c adf7 6c3d c775 93bb
00000010: 0b2d b03d 28ab 79b9 339f 17bc 05ae 603c
00000020: aad5 a3bd 275a 273d 02e0 80bd e86f 37bd
00000030: 526f 943d 7f0d 033d 1db1 d73c 5115 463d
00000040: 08ac 273d 7916 0fbe 7cd2 c7bd 812e 0dbd
00000050: 15f2 43bb 5e87 c53c 3316 8a3b 7ecd 083c
00000060: 3572 873c d3b9 0cbb 7f00 7a3d 45d9 36bd
00000070: 69f7 f7bc 0143 c93d 8bd8 d83c f927 503d
00000080: 0121 ee3c 7b59 803d f26f 72bc 4ece ac3c
00000090: 98ab c23c 0255 c1bd 6aa0 96bb 691b 263c
000000a0: ab35 3e3c 3eeb c03c a0cd a03d e7a5 77bc
000000b0: ca2f 233d 9614 7bbd 7d96 ba3d 3a76 4cbc
000000c0: 6c1c b9bc 4f8c 25bc 307b b2bd 8f57 8cbd
000000d0: 8011 0abd 604d a6bd 1ba9 c33d 4e98 8c3d
000000e0: 91dc 5ebc 0795 4c3d d32a f8bc 68e5 f93c
000000f0: 785b 40bd 909f 52bd 4970 9f3a f063 1dbd
00000100: 5e76 1c3d 18ce cdbd 20b7 73bd 372b e73c
00000110: eeb6 503d 5908 9abd 100e c8bc 2e98 c7ba
00000120: ebce 643a 030d 9e3b e583 3f3d fe6b 7c3d
00000130: 3947 e53c 4bf0 70bd 05f0 393d d96b dc3b
00000140: a0b4 b7bd 81b7 b6bc cd53 3bba a211 f0bc
00000150: c0c7 1b3d 8956 b4bc eaf6 503d 35e7 58bc
00000160: 7557 c33b 2003 87bc 5d0b 393d 77b5 5a3c
00000170: 1a82 9bbd 1df8 e63c 5cd7 27bd 97f8 513d
00000180: 8e2d b83d dc99 e8bb 647e 8c3c 30ba c33c
00000190: bf0d 34bb e007 1bbd 7b6a 60bd a56a 00ba
000001a0: 1acb 3d3b f99e a0ba 77d3 71bd 8577 db3b
000001b0: d0d1 2fbd d4d6 75bd cb1e b0bb 0a6b c0bc
000001c0: d04f 9dbb 5ac0 2cbc 68c0 5e3d a0bf 4c3d
000001d0: b733 df3c 5d3e 7d3d 6c79 c13c 8a21 75bd
000001e0: 116e 57bd 7bf8 8d3d 62f9 30bd e3f1 273d
000001f0: 07af 3ebd e286 87bd f153 c4bb 3e2f aa3d
00000200: 227c 07bd c305 9fbb 9878 dcbc a1f9 6bbd
00000210: c4a7 813d 506d 033d 972f 39bc e5c8 5fbc
00000220: c80c 93bd adfe 8dbd 25d0 28bd 84fb aebc
00000230: 1394 92bc e3fe fe3c b06d 4bbc 6c1e 873d
00000240: 90d1 b5bc 6dd0 e33c fafb 57bd c209 353d
00000250: d211 09bd b960 903b c997 4bbd 28c1 3a3d
00000260: fb78 3bbd 64a0 b63c c93a 9c3c fdb8 9e3c
00000270: 158d 7b3c 067c 6cbd 0018 c73c 6fb5 563c
00000280: f84a 033c d24b bfbd 0f6f cebd 8ffc 62bc
00000290: d727 c8bc 9331 51bd 56bb f1bd c3f3 01be
000002a0: 64f6 a23d 95f9 c7bc dd95 01bd a470 033d
000002b0: eb41 723d f92c 28bd a284 3e3d c625 843d
000002c0: e3a9 93bd d0b1 0ebd 884e 22bd 0cf0 953d
000002d0: 3367 583d bf7a 683d 80c8 04bd c3f1 20bd
000002e0: cfc5 8b3d f329 2c3d 5264 113c baec 8e3c
000002f0: 1bc9 22bd 8565 2a3c 665e b63c fe57 8bbd
00000300: 2811 153d dc70 813d f316 2cbd 0a3f 713b
00000310: 5134 563d a886 e3bb 517c dbbc 5930 0fbd
00000320: 00b1 28bd bbfd c9bc 3e0a 54bd cd8c 2fbc
00000330: 6264 95bc dc38 c23c cf97 b6bd 9f09 5d3c
00000340: 7e6b 7cba 61ab a23d 3855 1cbd f581 58bd
00000350: 0253 0abd b68e 42bc 5fd3 123d f8e4 2f3d
00000360: aa07 023d 4c67 8e3c 49c1 653d 3286 85bd
00000370: 0eb2 b0bc fa57 2cbd 050b b33d b990 673c
00000380: 76d2 0dbc 29c7 903d 1129 bf3d 294f 5abd
00000390: 674b 693d 7498 b9bc fb48 163c dc42 213d
000003a0: 017a e53d 96d3 f13c b532 c83c d81a 45bd
000003b0: 455a a7bc b39d 59bd dfa9 883b 8907 1d3c
000003c0: 8fe3 ab3c 487d 84bc 0446 f1bc c2c6 1d3d
000003d0: 85d2 5b3d 12b0 04bd 14cc 00bd 48f7 1e3d
000003e0: c76a 5b3d 7fb0 9c3b 61da afbc 30dc a43d
000003f0: 3ad4 673d 1eb9 a43d 862b 4538 582e 0abd
0.011746671 0.02440527 0.05785339 -0.004500124 0.08602341 -0.00023810251 -0.009254265 0.0137133645
-0.079997376 0.04085746 -0.06292726 -0.044784456 0.07247795 0.031995293 0.026329571 0.048360173
0.040935546 -0.13973416 -0.097569436 -0.034468178 -0.002989893 0.0241124 0.004214072 0.008349774
0.01653395 -0.0021473065 0.06103563 -0.044640798 -0.030269342 0.09827233 0.026470443 0.05081937
0.029068472 0.06267067 -0.014797198 0.021094467 0.023763463 -0.09440042 -0.0045967596 0.010138371
0.011609475 0.023549672 0.0785172 -0.015115238 0.039840497 -0.06129893 0.091107346 -0.012479359
-0.02259656 -0.010104253 -0.087149024 -0.06852638 -0.033708096 -0.08120227 0.09553739 0.06864987
-0.013602392 0.04994681 -0.030293858 0.030504897 -0.04696223 -0.051421702 0.0012164201 -0.038425386
0.03819882 -0.10049075 -0.059500813 0.028218849 0.050955705 -0.075211234 -0.024420768 -0.0015227848
0.0008728343 0.0048233285 0.046756644 0.061626427 0.027988063 -0.05882291 0.045394916 0.0067267236
-0.08969998 -0.022304298 -0.0007145971 -0.029305283 0.038032293 -0.02201392 0.051016726 -0.013238718
0.0059613534 -0.016480982 0.045176852 0.013348929 -0.07593174 0.028194482 -0.040976867 0.051262464
0.08993064 -0.0070984196 0.017150111 0.023892492 -0.0027474014 -0.037849307 -0.054789048 -0.0004898704
0.002896017 -0.0012254409 -0.05903956 0.0066975974 -0.042924702 -0.06001933 -0.0053747646 -0.02348854
-0.004800774 -0.010543907 0.05438271 0.049987435 0.02724634 0.061827052 0.023617469 -0.05984644
-0.052595202 0.069321595 -0.04320658 0.041002166 -0.046553638 -0.06617524 -0.005991452 0.08309792
-0.033077367 -0.004852982 -0.026912972 -0.05761111 0.06330827 0.03208667 -0.01130285 -0.013658737
-0.07180172 -0.06933341 -0.041214127 -0.021360166 -0.017892873 0.031127399 -0.012416288 0.065975994
-0.022194654 0.027809346 -0.052730538 0.04419876 -0.03346426 0.0044060615 -0.0497053 0.045594364
-0.045769673 0.022293277 0.019071 0.019375319 0.015353461 -0.057735465 0.024303436 0.013104781
0.008013479 -0.093406335 -0.100797765 -0.01385416 -0.02443306 -0.05107267 -0.118033096 -0.12690644
0.079571515 -0.024411002 -0.03163706 0.032089844 0.059144896 -0.041058514 0.046513207 0.06452517
-0.07210138 -0.034837544 -0.039625674 0.07321176 0.052832793 0.056757685 -0.032417774 -0.039293062
0.06824838 0.042032193 0.008874016 0.017446864 -0.03974257 0.010400181 0.02226181 -0.068038926
0.036393315 0.06320354 -0.042014074 0.0036811256 0.052295987 -0.0069435425 -0.026792677 -0.034958217
-0.041184425 -0.02465712 -0.05176758 -0.010714722 -0.018236343 0.023708753 -0.08915674 0.013491063
-0.00096290547 0.07942844 -0.03816721 -0.05285831 -0.03377057 -0.011874845 0.03584611 0.04294297
0.03174559 0.01738324 0.056092534 -0.06519736 -0.021569278 -0.04207609 0.08742336 0.014133626
-0.008656135 0.07069237 0.09334005 -0.05329815 0.056956675 -0.022655703 0.009172673 0.039370403
0.11204911 0.029519837 0.024438241 -0.048121303 -0.020428786 -0.05312891 0.004170641 0.009584316
0.020982532 -0.01617302 -0.029452331 0.03851963 0.053667564 -0.032394476 -0.031444624 0.038810045
0.053568628 0.004781782 -0.021466436 0.0804981 0.05659888 0.08043121 4.7008994e-05 -0.033735603

encoder.13.bias f4 [40]
00000000: b01d 903d b905 a23c 9e90 93bc f2b5 8fbd
00000010: 5812 023d c2b4 573d c92c 24bd 85ee a5bc
00000020: dcda 64bd 098c ba3c 5c80 4bbd 404d 1e3d
00000030: 5b8d 8cbd 5b99 7b3d 311d a6bc d8d1 e6bc
00000040: c609 48ba 7fc3 323d 45f5 a8bc ea6f 993d
00000050: a2c8 dabc f77c 86bc 96e2 8b3d 9505 61bd
00000060: 1e5f 18bc e1c3 913c 2639 1d3a e3fb 07bd
00000070: 9f07 ba3c 77c2 ddbc 7518 8dbd 9a6f 463d
00000080: f1c1 c1bc edf1 0cbd 43ea 63bd 0980 91bd
00000090: 81d9 36bd 3c9b 96bd 7190 6bbd 52b8 31bd
0.070369124 0.01977812 -0.018013295 -0.07017125 0.031755775 0.05266262 -0.040081773 -0.020255337
-0.055872783 0.022771852 -0.04968296 0.03864789 -0.06862899 0.061425548 -0.020277591 -0.028176233
-0.0007630851 0.04364347 -0.020624766 0.07492049 -0.026706997 -0.01641701 0.06830327 -0.054936964
-0.009300021 0.017793598 0.00059975905 -0.033199202 0.022708712 -0.027070267 -0.068894304 0.048446275
-0.023652049 -0.034410406 -0.05564333 -0.07104499 -0.04464102 -0.07353827 -0.057510797 -0.043388672

encoder.14.weight f4 [40]
00000000: e529 773f cc19 8c3f be0b 913f faa3 803f
00000010: 5f83 793f 08dd 7a3f 377b 7f3f 766f 7f3f
00000020: e921 813f 3917 7c3f 38d0 7f3f e6d0 7a3f
00000030: 706b 6d3f cbe7 843f 1367 843f 6126 763f
00000040: b622 803f 9755 7c3f 7fee 733f b55d 793f
00000050: 5279 763f 594c 803f e508 7e3f a370 8d3f
00000060: 96b2 783f e635 813f 7a31 7c3f fb9b 823f
00000070: 9194 803f 7383 7b3f 1eef 7f3f d7da 803f
00000080: 09f7 823f b5ce 7f3f c609 833f 9add 7f3f
00000090: 1814 763f 3bb5 873f da8c 7b3f 4af8 803f
0.965483 1.0945373 1.1331708 1.0050042 0.9746608 0.97993517 0.99797386 0.9977945
1.0088474 0.98472935 0.9992709 0.97975004 0.9274206 1.0383238 1.0343956 0.9615231
1.0010593 0.985681 0.9528579 0.9740861 0.9627887 1.00233 0.9923232 1.1049999
0.971475 1.0094573 0.98512995 1.0203851 1.0045339 0.9824745 0.9997424 1.0066785
1.0231639 0.99924785 1.0237358 0.9994751 0.9612441 1.0602182 0.982618 1.0075772

encoder.14.bias f4 [40]
00000000: 0d53 a43d c463 83bd d2ec ebbd 73d6 83bd
00000010: 49dd 98bd 0a67 b3bd 99cf debc f39d cfbd
00000020: 22ca 06bd 34ce afbc 146e bebd a219 4cbe
00000030: 0b79 ad3d 5a9a a23b 76f3 05be a2ec 6cbc
00000040: c4ff b2bd 1ba5 b1bd d391 2fbd 567e 8cbc
00000050: 40f0 4d3d 4f9c 6fbd 2b32 4cbe 78c0 53bb
00000060: 24f4 b7bd 219a c1bd 8847 323c 5ff3 c1bd
00000070: bf37 ab3d e359 73bd 45a4 77bd 4a69 11be
00000080: 78ec abbd 7b61 c6bc d3f8 e6bd 6615 d13c
00000090: f32b e9bd 5e6e 27be 8da2 b4bc d1e6 a6bd
0.08023653 -0.06415513 -0.11519779 -0.06437387 -0.07464082 -0.087598875 -0.0271986 -0.10137548
-0.032907613 -0.02146063 -0.092983395 -0.19931653 0.08470353 0.004962248 -0.13081154 -0.0144607145
-0.0874019 -0.086740695 -0.04286368 -0.017150085 0.05027795 -0.058498677 -0.19941013 -0.0032310765
-0.08982113 -0.09453226 0.010881312 -0.094702475 0.08360242 -0.059411895 -0.060459394 -0.14200321
-0.08394712 -0.024216404 -0.11277928 0.025522899 -0.11385336 -0.16350695 -0.022050167 -0.081494935

encoder.14.running_mean f4 [40]
00000000: 9de3 e43d 673b 40bd 7aae 9f3d ab52 98bb
00000010: 4458 6c3e f9a6 a73d 0d60 ac3c 9b6d 10bd
00000020: dd3c a7bc 6b97 0bbd e936 72be 944b 7c3d
00000030: faba 74be 8580 163d d9a2 8f3d f972 de3d
00000040: 00bf b0bd cf8e 8a3d c18b f8bd 9813 cabd
00000050: e3c5 dd3d 0c45 1bbd a8cb b83e 64df 81ba
00000060: fcb6 6dbd 06cb 9ebc f11f b1bb 5577 c5bd
00000070: d0c8 be3c 3689 12be 6166 aebd 709c cc3d
00000080: 70c5 933d 38ae 86bd 4fa0 febd 8918 3abe
00000090: 6ce7 c0bd bf46 39be 56ed 123e 90b6 76be
0.11176226 -0.04693165 0.07796951 -0.0046485267 0.23080546 0.081861444 0.021041894 -0.035260778
-0.020414764 -0.03407995 -0.23653759 0.061595514 -0.23899451 0.03674366 0.070134826 0.10861773
-0.0863018 0.0676552 -0.12136031 -0.098670185 0.108287595 -0.037907645 0.36092877 -0.0009908495
-0.058035836 -0.019383918 -0.005405419 -0.096419014 0.023289114 -0.14310154 -0.08515621 0.099907756
0.072153926 -0.06576198 -0.1243292 -0.18173422 -0.0941914 -0.18093394 0.14348349 -0.2409308

encoder.14.running_var f4 [40]
00000000: 2c9d 123e 546f 943e 3aff 5b3e d593 923e
00000010: 31f5 953e 3bae 363e 14a5 f33e 8c1f 573e
00000020: 33dc af3e 49eb 013e 4438 303e ff86 893e
00000030: a57a 703e 2316 ac3e 0f2c 823e 01b4 473e
00000040: 9f76 ae3e aac3 9b3e 87e4 133f e219 663f
00000050: a514 923e 61d1 fb3e ed7b 853e 5637 903e
00000060: 10a0 143f a089 983e f561 8c3e abe3 e23e
00000070: c8b2 7e3e 3886 ac3e c11c 043f 8206 563e
00000080: d5f3 af3e a8ef 883e 37ec c93e 559b 6f3e
00000090: 5cb2 763e bac3 6c3e 49e9 033f 3afc ce3e
0.14317769 0.28991187 0.2148408 0.28628412 0.2928863 0.17839901 0.47586882 0.21008128
0.34347686 0.1268741 0.17208964 0.26860806 0.23484285 0.3361064 0.2542424 0.1950226
0.34074876 0.30422717 0.5777058 0.89883244 0.28531376 0.4918318 0.2607111 0.28167218
0.58056736 0.297925 0.27418485 0.44314322 0.24872887 0.3369615 0.51606375 0.2090092
0.34365717 0.26745343 0.3943803 0.23399098 0.24091476 0.23121539 0.5152784 0.4042681

encoder.17.weight f4 [2, 40, 1, 8]
00000000: c7ac 43bc 2df4 fe3b 247e 113d e1a8 b33d
00000010: 8d0b 6dbd 3ab9 84bc b0d6 fcbc 10ec b8bb
00000020: 13d8 6c3b b51f b93c 204d 49bd d022 d5bd
00000030: 4d8a 1ebd 3cd3 1c3c 18d5 82bc 0e0b 553a
00000040: 12a1 d83b 14de 5e3c 7e9c 9e3d 0261 4f3d
00000050: 3021 18be 5053 263d d7c4 d03b a359 dc3c
00000060: 3157 ae38 e289 043d 4c20 bf3b a0cf 923d
00000070: 02f1 9fbd 7e79 82bd f004 cdba 4220 5f3b
00000080: 8b9e 063c 4209 323c 19ad c4bb b55f 28bd
00000090: 6000 7e3d 68aa 933c c47d 01bd 1257 8c3c
000000a0: 0bde 343c 9acd a53c 6a53 b0bc a06a 1a3d
000000b0: a3c5 3c3c 9dcf d93c 3055 96bc c30f 443b
000000c0: 0062 dcb9 763d 7b39 bd31 66bc a7b1 973c
000000d0: 5ad2 6f3d d51b 3abb 4814 a43b b434 d3bb
000000e0: 49da 7bbb fa8c 0a3c be55 63bd 36b4 0b3d
000000f0: cfcf 82ba dfe6 a2bc ff71 16bc f10d 01bc
00000100: 732c 0bbb 4cbf 95bb f0bc 90bb 9684 37bd
00000110: 693b d4bb 9a8e a4bc 4507 ae3c 7cde 533c
00000120: f3e1 7d3b 06db 7fbc ea07 523c dd33 843d
00000130: 3fa7 0e3d 1653 22bb ead7 ad3c a11d a93c
00000140: e468 9dbb dc87 febc f54e fdbb 4786 923a
00000150: 0686 06bd b4b7 10bd 9a83 5abc c93d 86bc
00000160: 8a6c f83b a458 f13b 1237 55bc a661 49bd
00000170: 1238 41bd 2854 0f3d 229d 97bc c150 01bc
00000180: bcfb 983a ce80 ff3a adc4 dc3c ea49 2a3d
00000190: 5533 c83b 27bf f63c 5c63 81bc b756 843c
000001a0: 428d 36bd 122b 543b 3c06 a7bc e5d8 3f3d
000001b0: d9a2 013e efae 03bd 6bf9 153d 036d ec39
000001c0: 8026 3dbb 8394 11bc f02a 25bc 6455 0f3d
000001d0: cff8 813d 1804 983d e979 243d 3e41 ad3c
000001e0: e99d c53b d6c5 f43c 9130 593d d589 233b
000001f0: 22b1 10bc 2233 c03c 9513 1a3c 3bb7 debb
00000200: 3a70 92bb 1352 60bc 47a3 86bc a0cc 8ebd
00000210: 1eee 8abd 7329 56bc 5e8f a7bc 9584 08bc
00000220: e551 b53b c114 a4bb 1a41 00bb 8753 5c3d
00000230: c987 72bd cb59 af3c 2660 bc3c a060 a1bc
00000240: 8eb8 81bb 7c69 6abd de7a f93c 8abb 083a
00000250: fe31 ac3c a580 d33c ddb5 84bc a18f e0bc
00000260: 33c6 413c b3b4 fe3c 280e 65bc 2065 153d
00000270: 970e 793d a3f7 c63c ecc9 a0bc 8671 cc3b
00000280: 13a1 0abd da8a 97bb 6a5e 8e3c 08e2 dabc
00000290: fdcc 223d 8b5f 503d 8bd5 c43c 70de 2cbc
000002a0: 12d5 04bc 5e93 a4bb ed2d 1dbd 2456 783d
000002b0: c2f3 563d 8ce5 fa3c 9a3c 823c 9632 b5bb
000002c0: c300 483c 5865 a7bc b32a 06bd 6ee7 1cbd
000002d0: c9f7 443d dea0 9c3c 377a 84b9 f2d3 3239
000002e0: 40dc 503c 7f98 1b3d 2313 a03c 695a a3bc
000002f0: 193d 38be 5379 e43c 36e9 a63c 110c 233c
00000300: 3b54 eb3c b664 e93c 1bc9 913b 8d75 08bd
00000310: e44e 463d 0425 a13c 598a 2dbd db3e c43c
00000320: 28cd c1bc 35fb 1dbd 723a abbc 9e17 813c
00000330: a514 08bd ac41 043d 5c4d f2bb 8fec 21bc
00000340: f909 47ba e2fd 013d ec30 b9bc 720d 37bd
00000350: cc29 d83c fef8 68bd 342a 5e3d 51a0 b93c
00000360: 8500 05bc cffb 49bc dd6e 4fbd da2b 69bd
00000370: 35c1 e5bd db62 a53c a004 b83a 3b69 493b
00000380: 416d 83bb 2269 2f3c 3ce0 cd3c 3b94 723d
00000390: eac4 93bc 8beb 3a3d 12a7 63bc 6020 3038
000003a0: 700e e13b 947c b73b 668f 7fbd a5b4 0d3d
000003b0: 9c5c 98bd 41a3 f2bc 4eea 8b3c 1c11 4f3c
000003c0: 0dc2 3dbc c2d8 dabb 9c7c 0cbb 929f b9bc
000003d0: f647 d1bb 52b9 83bd 1736 04bc fb62 47bd
000003e0: 732c 18bc 7655 b1bc 562e 77bc 04ab bc3c
000003f0: 7d7f 523d 1497 66bd 121d 713c 47e6 ef3c
-0.011943049 0.007780573 0.035520688 0.087724455 -0.057872344 -0.016201604 -0.03086409 -0.005643375
0.0036139532 0.022598127 -0.049145818 -0.104070306 -0.038706113 0.009571847 -0.015970752 0.00081269525
0.006610998 0.013602752 0.07744692 0.050629623 -0.1485641 0.040606797 0.0063711214 0.02689821
8.313207e-05 0.032358058 0.0058327075 0.071685076 -0.078096405 -0.06370829 -0.001564173 0.0034046327
0.0082165105 0.010866465 -0.00600208 -0.0411069 0.062012076 0.018025592 -0.03161408 0.017131362
0.011039267 0.02023964 -0.02152415 0.03769934 0.01152173 0.026588256 -0.018351167 0.0029916621
-0.00042034686 0.00023960121 -0.0140499445 0.018517328 0.058550216 -0.0028397937 0.0050073005 -0.0064454917
-0.0038429669 0.008456463 -0.055501692 0.03410741 -0.0009980145 -0.019885479 -0.009182452 -0.007876859
-0.002123621 -0.0045699235 -0.0044170544 -0.04480418 -0.006476809 -0.020087529 0.0212437 0.012931462
0.0038739413 -0.015616184 0.01281927 0.06455205 0.034827467 -0.0024768761 0.02122112 0.020644011
-0.0048037637 -0.031070642 -0.0077303597 0.0011178934 -0.03284266 -0.035331443 -0.01333704 -0.016386883
0.0075812982 0.007365303 -0.013013618 -0.04916539 -0.047172613 0.034992367 -0.018507544 -0.007892788
0.0011671702 0.0019493343 0.026949251 0.041574396 0.006109635 0.030120445 -0.015794449 0.01615463
-0.044568308 0.0032374305 -0.020388715 0.046837706 0.12659778 -0.03214925 0.036614817 0.00045094648
-0.002886206 -0.008885506 -0.010081038 0.034993544 0.063462846 0.07422656 0.040155325 0.021149274
0.0060307872 0.029879492 0.053024832 0.002495398 -0.008831294 0.023461882 0.009404083 -0.006796745
-0.004468945 -0.013691443 -0.016435279 -0.06972623 -0.067836985 -0.013071406 -0.020454105 -0.008332391
0.005533444 -0.005007357 -0.0019570054 0.053790595 -0.059211526 0.021405121 0.022995066 -0.019699395
-0.003958768 -0.057229504 0.030454095 0.0005215934 0.021019932 0.025818178 -0.0162 -0.027412238
0.0118270395 0.031092023 -0.013980426 0.036473393 0.06080493 0.024288004 -0.019627534 0.006239119
-0.03384502 -0.0046247067 0.017379005 -0.026719108 0.039746273 0.050872367 0.024027606 -0.01055108
-0.008107441 -0.0050224504 -0.038373876 0.060629025 0.05247856 0.030627035 0.015898038 -0.005529712
0.012207213 -0.020434067 -0.032755565 -0.038306646 0.04808787 0.019119676 -0.0002526806 0.00017054359
0.012747824 0.03798723 0.019540375 -0.019940572 -0.17992057 0.027889883 0.020374876 0.009951607
0.028726688 0.028490406 0.0044490225 -0.03331523 0.04841508 0.01967097 -0.042368267 0.023955753
-0.023657396 -0.038569648 -0.020901892 0.015758332 -0.033222813 0.032289192 -0.007394476 -0.00988306
-0.00075927336 0.031736262 -0.022606336 -0.044690557 0.026387118 -0.056878082 0.054239467 0.022659453
-0.0081178 -0.012328102 -0.050642837 -0.056926586 -0.11218492 0.02018874 0.0014039464 0.0030732888
-0.004010827 0.010706218 0.025131337 0.059223395 -0.018038232 0.045634788 -0.013894813 4.199182e-05
0.006868176 0.0055995677 -0.062392615 0.034596104 -0.07439539 -0.029618861 0.017079499 0.012638357
-0.01158191 -0.0066786716 -0.0021436578 -0.022659097 -0.0063867522 -0.064318314 -0.008069537 -0.04867838
-0.009287941 -0.021647196 -0.015086731 0.023030765 0.051391114 -0.056296423 0.014716404 0.02928461

encoder.17.bias f4 [2]
00000000: 50c6 1bbd 0a0a abbc
-0.038030922 -0.02087881

encoder.18.weight f4 [2]
00000000: 1c61 3f3f 2b73 2e3f
0.7475755 0.6814448

encoder.18.bias f4 [2]
00000000: de77 0c3f 79f3 273f
0.548704 0.65605885

encoder.18.running_mean f4 [2]
00000000: 2e90 b13c b1f8 2d3d
0.021675196 0.0424735

encoder.18.running_var f4 [2]
00000000: 94ff 643f 102f 0c3f
0.8945248 0.5475931

decoder.1.weight f4 [2, 2, 1, 8]
00000000: ab66 a3bd 6a4d c73c f451 e53e 2b25 383e
00000010: 0a23 50bd 06e8 223e 6415 5a3d 633a d93c
00000020: 9734 15bd a6bf f5bd ac0e 0cbe 0c08 8dbe
00000030: 2263 123e d6f5 8fbd 3d14 963a d8cf d338
00000040: b600 70bd b686 b7bd 771b a53e 94dc 823d
00000050: 59ef 643e 39d1 0cbd 3cf8 81bc b5d7 acbb
00000060: 702d d43c 30b9 313d 80e5 583e 1585 6c3e
00000070: 228a 8dbd 6831 6e3d f50d 7c3c 9cdc ab3b
-0.07978567 0.024328906 0.44789088 0.17982928 -0.050814666 0.15908822 0.053243056 0.026517099
-0.036427107 -0.11999445 -0.13677472 -0.27545202 0.14295629 -0.07029311 0.0011450123 0.00010099978
-0.058594428 -0.08961241 0.32247517 0.06389728 0.22356929 -0.034379218 -0.015865438 -0.0052747377
0.025900573 0.0433895 0.21181297 0.23097642 -0.06911112 0.058152586 0.015384187 0.0052448045

decoder.1.bias f4 [2]
00000000: 6a70 683e f2e0 78bd
0.22699133 -0.0607614

decoder.2.weight f4 [2]
00000000: a967 3d3f a6a9 1d3f
0.739863 0.6158699

decoder.2.bias f4 [2]
00000000: 07ca 773e 3e32 c23e
0.24198161 0.37928957

decoder.2.running_mean f4 [2]
00000000: 8f56 6a3f a5c3 603b
0.9153833 0.00342963

decoder.2.running_var f4 [2]
00000000: 1249 ba3e dcbe 823d
0.36383873 0.0638406
